{"format": "graph-model", "generatedBy": "2.8.3", "convertedBy": "TensorFlow.js Converter v3.18.0", "signature": {"inputs": {"input_1": {"name": "input_1:0", "dtype": "DT_FLOAT", "tensorShape": {"dim": [{"size": "-1"}, {"size": "300"}, {"size": "300"}, {"size": "3"}]}}}, "outputs": {"dense": {"name": "Identity:0", "dtype": "DT_FLOAT", "tensorShape": {"dim": [{"size": "-1"}, {"size": "112"}]}}}}, "modelTopology": {"node": [{"name": "StatefulPartitionedCall/sequential/dense/MatMul/ReadVariableOp", "op": "Const", "attr": {"value": {"tensor": {"dtype": "DT_FLOAT", "tensorShape": {"dim": [{"size": "1280"}, {"size": "112"}]}}}, "dtype": {"type": "DT_FLOAT"}}}, {"name": "StatefulPartitionedCall/sequential/dense/BiasAdd/ReadVariableOp", "op": "Const", "attr": {"value": {"tensor": {"dtype": "DT_FLOAT", "tensorShape": {"dim": [{"size": "112"}]}}}, "dtype": {"type": "DT_FLOAT"}}}, {"name": "input_1", "op": "Placeholder", "attr": {"dtype": {"type": "DT_FLOAT"}, "shape": {"shape": {"dim": [{"size": "-1"}, {"size": "300"}, {"size": "300"}, {"size": "3"}]}}}}, {"name": "StatefulPartitionedCall/sequential/hub_keras_layer_v1v2/StatefulPartitionedCall/efficientnet-lite4/model/stem/conv2d/Conv2D_weights", "op": "Const", "attr": {"value": {"tensor": {"dtype": "DT_FLOAT", "tensorShape": {"dim": [{"size": "3"}, {"size": "3"}, {"size": "3"}, {"size": "32"}]}}}, "dtype": {"type": "DT_FLOAT"}}}, {"name": "StatefulPartitionedCall/sequential/hub_keras_layer_v1v2/StatefulPartitionedCall/efficientnet-lite4/model/stem/conv2d/Conv2D_bn_offset", "op": "Const", "attr": {"value": {"tensor": {"dtype": "DT_FLOAT", "tensorShape": {"dim": [{"size": "32"}]}}}, "dtype": {"type": "DT_FLOAT"}}}, {"name": "StatefulPartitionedCall/sequential/hub_keras_layer_v1v2/StatefulPartitionedCall/efficientnet-lite4/model/blocks_24/depthwise_conv2d/depthwise_bn_offset", "op": "Const", "attr": {"dtype": {"type": "DT_FLOAT"}, "value": {"tensor": {"dtype": "DT_FLOAT", "tensorShape": {"dim": [{"size": "1632"}]}}}}}, {"name": "StatefulPartitionedCall/sequential/hub_keras_layer_v1v2/StatefulPartitionedCall/efficientnet-lite4/model/blocks_0/depthwise_conv2d/depthwise_weights", "op": "Const", "attr": {"value": {"tensor": {"dtype": "DT_FLOAT", "tensorShape": {"dim": [{"size": "3"}, {"size": "3"}, {"size": "32"}, {"size": "1"}]}}}, "dtype": {"type": "DT_FLOAT"}}}, {"name": "StatefulPartitionedCall/sequential/hub_keras_layer_v1v2/StatefulPartitionedCall/efficientnet-lite4/model/blocks_0/depthwise_conv2d/depthwise_bn_offset", "op": "Const", "attr": {"value": {"tensor": {"dtype": "DT_FLOAT", "tensorShape": {"dim": [{"size": "32"}]}}}, "dtype": {"type": "DT_FLOAT"}}}, {"name": "StatefulPartitionedCall/sequential/hub_keras_layer_v1v2/StatefulPartitionedCall/efficientnet-lite4/model/blocks_0/conv2d/Conv2D_weights", "op": "Const", "attr": {"dtype": {"type": "DT_FLOAT"}, "value": {"tensor": {"dtype": "DT_FLOAT", "tensorShape": {"dim": [{"size": "1"}, {"size": "1"}, {"size": "32"}, {"size": "24"}]}}}}}, {"name": "StatefulPartitionedCall/sequential/hub_keras_layer_v1v2/StatefulPartitionedCall/efficientnet-lite4/model/blocks_0/conv2d/Conv2D_bn_offset", "op": "Const", "attr": {"dtype": {"type": "DT_FLOAT"}, "value": {"tensor": {"dtype": "DT_FLOAT", "tensorShape": {"dim": [{"size": "24"}]}}}}}, {"name": "StatefulPartitionedCall/sequential/hub_keras_layer_v1v2/StatefulPartitionedCall/efficientnet-lite4/model/blocks_1/conv2d/Conv2D_weights", "op": "Const", "attr": {"value": {"tensor": {"dtype": "DT_FLOAT", "tensorShape": {"dim": [{"size": "1"}, {"size": "1"}, {"size": "24"}, {"size": "144"}]}}}, "dtype": {"type": "DT_FLOAT"}}}, {"name": "StatefulPartitionedCall/sequential/hub_keras_layer_v1v2/StatefulPartitionedCall/efficientnet-lite4/model/blocks_1/conv2d/Conv2D_bn_offset", "op": "Const", "attr": {"dtype": {"type": "DT_FLOAT"}, "value": {"tensor": {"dtype": "DT_FLOAT", "tensorShape": {"dim": [{"size": "144"}]}}}}}, {"name": "StatefulPartitionedCall/sequential/hub_keras_layer_v1v2/StatefulPartitionedCall/efficientnet-lite4/model/blocks_24/conv2d_1/Conv2D_weights", "op": "Const", "attr": {"value": {"tensor": {"dtype": "DT_FLOAT", "tensorShape": {"dim": [{"size": "1"}, {"size": "1"}, {"size": "1632"}, {"size": "272"}]}}}, "dtype": {"type": "DT_FLOAT"}}}, {"name": "StatefulPartitionedCall/sequential/hub_keras_layer_v1v2/StatefulPartitionedCall/efficientnet-lite4/model/blocks_1/depthwise_conv2d/depthwise_weights", "op": "Const", "attr": {"value": {"tensor": {"dtype": "DT_FLOAT", "tensorShape": {"dim": [{"size": "3"}, {"size": "3"}, {"size": "144"}, {"size": "1"}]}}}, "dtype": {"type": "DT_FLOAT"}}}, {"name": "StatefulPartitionedCall/sequential/hub_keras_layer_v1v2/StatefulPartitionedCall/efficientnet-lite4/model/blocks_1/depthwise_conv2d/depthwise_bn_offset", "op": "Const", "attr": {"value": {"tensor": {"dtype": "DT_FLOAT", "tensorShape": {"dim": [{"size": "144"}]}}}, "dtype": {"type": "DT_FLOAT"}}}, {"name": "StatefulPartitionedCall/sequential/hub_keras_layer_v1v2/StatefulPartitionedCall/efficientnet-lite4/model/blocks_1/conv2d_1/Conv2D_weights", "op": "Const", "attr": {"value": {"tensor": {"dtype": "DT_FLOAT", "tensorShape": {"dim": [{"size": "1"}, {"size": "1"}, {"size": "144"}, {"size": "32"}]}}}, "dtype": {"type": "DT_FLOAT"}}}, {"name": "StatefulPartitionedCall/sequential/hub_keras_layer_v1v2/StatefulPartitionedCall/efficientnet-lite4/model/blocks_29/depthwise_conv2d/depthwise_weights", "op": "Const", "attr": {"value": {"tensor": {"dtype": "DT_FLOAT", "tensorShape": {"dim": [{"size": "3"}, {"size": "3"}, {"size": "1632"}, {"size": "1"}]}}}, "dtype": {"type": "DT_FLOAT"}}}, {"name": "StatefulPartitionedCall/sequential/hub_keras_layer_v1v2/StatefulPartitionedCall/efficientnet-lite4/model/blocks_1/conv2d_1/Conv2D_bn_offset", "op": "Const", "attr": {"dtype": {"type": "DT_FLOAT"}, "value": {"tensor": {"dtype": "DT_FLOAT", "tensorShape": {"dim": [{"size": "32"}]}}}}}, {"name": "StatefulPartitionedCall/sequential/hub_keras_layer_v1v2/StatefulPartitionedCall/efficientnet-lite4/model/blocks_2/conv2d/Conv2D_weights", "op": "Const", "attr": {"value": {"tensor": {"dtype": "DT_FLOAT", "tensorShape": {"dim": [{"size": "1"}, {"size": "1"}, {"size": "32"}, {"size": "192"}]}}}, "dtype": {"type": "DT_FLOAT"}}}, {"name": "StatefulPartitionedCall/sequential/hub_keras_layer_v1v2/StatefulPartitionedCall/efficientnet-lite4/model/blocks_24/conv2d_1/Conv2D_bn_offset", "op": "Const", "attr": {"value": {"tensor": {"dtype": "DT_FLOAT", "tensorShape": {"dim": [{"size": "272"}]}}}, "dtype": {"type": "DT_FLOAT"}}}, {"name": "StatefulPartitionedCall/sequential/hub_keras_layer_v1v2/StatefulPartitionedCall/efficientnet-lite4/model/blocks_2/conv2d/Conv2D_bn_offset", "op": "Const", "attr": {"value": {"tensor": {"dtype": "DT_FLOAT", "tensorShape": {"dim": [{"size": "192"}]}}}, "dtype": {"type": "DT_FLOAT"}}}, {"name": "StatefulPartitionedCall/sequential/hub_keras_layer_v1v2/StatefulPartitionedCall/efficientnet-lite4/model/blocks_2/depthwise_conv2d/depthwise_weights", "op": "Const", "attr": {"dtype": {"type": "DT_FLOAT"}, "value": {"tensor": {"dtype": "DT_FLOAT", "tensorShape": {"dim": [{"size": "3"}, {"size": "3"}, {"size": "192"}, {"size": "1"}]}}}}}, {"name": "StatefulPartitionedCall/sequential/hub_keras_layer_v1v2/StatefulPartitionedCall/efficientnet-lite4/model/blocks_2/depthwise_conv2d/depthwise_bn_offset", "op": "Const", "attr": {"dtype": {"type": "DT_FLOAT"}, "value": {"tensor": {"dtype": "DT_FLOAT", "tensorShape": {"dim": [{"size": "192"}]}}}}}, {"name": "StatefulPartitionedCall/sequential/hub_keras_layer_v1v2/StatefulPartitionedCall/efficientnet-lite4/model/blocks_2/conv2d_1/Conv2D_weights", "op": "Const", "attr": {"dtype": {"type": "DT_FLOAT"}, "value": {"tensor": {"dtype": "DT_FLOAT", "tensorShape": {"dim": [{"size": "1"}, {"size": "1"}, {"size": "192"}, {"size": "32"}]}}}}}, {"name": "StatefulPartitionedCall/sequential/hub_keras_layer_v1v2/StatefulPartitionedCall/efficientnet-lite4/model/blocks_2/conv2d_1/Conv2D_bn_offset", "op": "Const", "attr": {"dtype": {"type": "DT_FLOAT"}, "value": {"tensor": {"dtype": "DT_FLOAT", "tensorShape": {"dim": [{"size": "32"}]}}}}}, {"name": "StatefulPartitionedCall/sequential/hub_keras_layer_v1v2/StatefulPartitionedCall/efficientnet-lite4/model/blocks_3/conv2d/Conv2D_weights", "op": "Const", "attr": {"dtype": {"type": "DT_FLOAT"}, "value": {"tensor": {"dtype": "DT_FLOAT", "tensorShape": {"dim": [{"size": "1"}, {"size": "1"}, {"size": "32"}, {"size": "192"}]}}}}}, {"name": "StatefulPartitionedCall/sequential/hub_keras_layer_v1v2/StatefulPartitionedCall/efficientnet-lite4/model/blocks_25/conv2d/Conv2D_weights", "op": "Const", "attr": {"dtype": {"type": "DT_FLOAT"}, "value": {"tensor": {"dtype": "DT_FLOAT", "tensorShape": {"dim": [{"size": "1"}, {"size": "1"}, {"size": "272"}, {"size": "1632"}]}}}}}, {"name": "StatefulPartitionedCall/sequential/hub_keras_layer_v1v2/StatefulPartitionedCall/efficientnet-lite4/model/blocks_3/conv2d/Conv2D_bn_offset", "op": "Const", "attr": {"dtype": {"type": "DT_FLOAT"}, "value": {"tensor": {"dtype": "DT_FLOAT", "tensorShape": {"dim": [{"size": "192"}]}}}}}, {"name": "StatefulPartitionedCall/sequential/hub_keras_layer_v1v2/StatefulPartitionedCall/efficientnet-lite4/model/blocks_3/depthwise_conv2d/depthwise_weights", "op": "Const", "attr": {"dtype": {"type": "DT_FLOAT"}, "value": {"tensor": {"dtype": "DT_FLOAT", "tensorShape": {"dim": [{"size": "3"}, {"size": "3"}, {"size": "192"}, {"size": "1"}]}}}}}, {"name": "StatefulPartitionedCall/sequential/hub_keras_layer_v1v2/StatefulPartitionedCall/efficientnet-lite4/model/blocks_3/depthwise_conv2d/depthwise_bn_offset", "op": "Const", "attr": {"dtype": {"type": "DT_FLOAT"}, "value": {"tensor": {"dtype": "DT_FLOAT", "tensorShape": {"dim": [{"size": "192"}]}}}}}, {"name": "StatefulPartitionedCall/sequential/hub_keras_layer_v1v2/StatefulPartitionedCall/efficientnet-lite4/model/blocks_3/conv2d_1/Conv2D_weights", "op": "Const", "attr": {"dtype": {"type": "DT_FLOAT"}, "value": {"tensor": {"dtype": "DT_FLOAT", "tensorShape": {"dim": [{"size": "1"}, {"size": "1"}, {"size": "192"}, {"size": "32"}]}}}}}, {"name": "StatefulPartitionedCall/sequential/hub_keras_layer_v1v2/StatefulPartitionedCall/efficientnet-lite4/model/blocks_25/conv2d/Conv2D_bn_offset", "op": "Const", "attr": {"value": {"tensor": {"dtype": "DT_FLOAT", "tensorShape": {"dim": [{"size": "1632"}]}}}, "dtype": {"type": "DT_FLOAT"}}}, {"name": "StatefulPartitionedCall/sequential/hub_keras_layer_v1v2/StatefulPartitionedCall/efficientnet-lite4/model/blocks_3/conv2d_1/Conv2D_bn_offset", "op": "Const", "attr": {"value": {"tensor": {"dtype": "DT_FLOAT", "tensorShape": {"dim": [{"size": "32"}]}}}, "dtype": {"type": "DT_FLOAT"}}}, {"name": "StatefulPartitionedCall/sequential/hub_keras_layer_v1v2/StatefulPartitionedCall/efficientnet-lite4/model/blocks_4/conv2d/Conv2D_weights", "op": "Const", "attr": {"value": {"tensor": {"dtype": "DT_FLOAT", "tensorShape": {"dim": [{"size": "1"}, {"size": "1"}, {"size": "32"}, {"size": "192"}]}}}, "dtype": {"type": "DT_FLOAT"}}}, {"name": "StatefulPartitionedCall/sequential/hub_keras_layer_v1v2/StatefulPartitionedCall/efficientnet-lite4/model/blocks_29/depthwise_conv2d/depthwise_bn_offset", "op": "Const", "attr": {"value": {"tensor": {"dtype": "DT_FLOAT", "tensorShape": {"dim": [{"size": "1632"}]}}}, "dtype": {"type": "DT_FLOAT"}}}, {"name": "StatefulPartitionedCall/sequential/hub_keras_layer_v1v2/StatefulPartitionedCall/efficientnet-lite4/model/blocks_4/conv2d/Conv2D_bn_offset", "op": "Const", "attr": {"value": {"tensor": {"dtype": "DT_FLOAT", "tensorShape": {"dim": [{"size": "192"}]}}}, "dtype": {"type": "DT_FLOAT"}}}, {"name": "StatefulPartitionedCall/sequential/hub_keras_layer_v1v2/StatefulPartitionedCall/efficientnet-lite4/model/blocks_4/depthwise_conv2d/depthwise_weights", "op": "Const", "attr": {"value": {"tensor": {"dtype": "DT_FLOAT", "tensorShape": {"dim": [{"size": "3"}, {"size": "3"}, {"size": "192"}, {"size": "1"}]}}}, "dtype": {"type": "DT_FLOAT"}}}, {"name": "StatefulPartitionedCall/sequential/hub_keras_layer_v1v2/StatefulPartitionedCall/efficientnet-lite4/model/blocks_4/depthwise_conv2d/depthwise_bn_offset", "op": "Const", "attr": {"dtype": {"type": "DT_FLOAT"}, "value": {"tensor": {"dtype": "DT_FLOAT", "tensorShape": {"dim": [{"size": "192"}]}}}}}, {"name": "StatefulPartitionedCall/sequential/hub_keras_layer_v1v2/StatefulPartitionedCall/efficientnet-lite4/model/blocks_4/conv2d_1/Conv2D_weights", "op": "Const", "attr": {"dtype": {"type": "DT_FLOAT"}, "value": {"tensor": {"dtype": "DT_FLOAT", "tensorShape": {"dim": [{"size": "1"}, {"size": "1"}, {"size": "192"}, {"size": "32"}]}}}}}, {"name": "StatefulPartitionedCall/sequential/hub_keras_layer_v1v2/StatefulPartitionedCall/efficientnet-lite4/model/blocks_25/depthwise_conv2d/depthwise_weights", "op": "Const", "attr": {"dtype": {"type": "DT_FLOAT"}, "value": {"tensor": {"dtype": "DT_FLOAT", "tensorShape": {"dim": [{"size": "5"}, {"size": "5"}, {"size": "1632"}, {"size": "1"}]}}}}}, {"name": "StatefulPartitionedCall/sequential/hub_keras_layer_v1v2/StatefulPartitionedCall/efficientnet-lite4/model/blocks_4/conv2d_1/Conv2D_bn_offset", "op": "Const", "attr": {"dtype": {"type": "DT_FLOAT"}, "value": {"tensor": {"dtype": "DT_FLOAT", "tensorShape": {"dim": [{"size": "32"}]}}}}}, {"name": "StatefulPartitionedCall/sequential/hub_keras_layer_v1v2/StatefulPartitionedCall/efficientnet-lite4/model/blocks_5/conv2d/Conv2D_weights", "op": "Const", "attr": {"value": {"tensor": {"dtype": "DT_FLOAT", "tensorShape": {"dim": [{"size": "1"}, {"size": "1"}, {"size": "32"}, {"size": "192"}]}}}, "dtype": {"type": "DT_FLOAT"}}}, {"name": "StatefulPartitionedCall/sequential/hub_keras_layer_v1v2/StatefulPartitionedCall/efficientnet-lite4/model/blocks_5/conv2d/Conv2D_bn_offset", "op": "Const", "attr": {"dtype": {"type": "DT_FLOAT"}, "value": {"tensor": {"dtype": "DT_FLOAT", "tensorShape": {"dim": [{"size": "192"}]}}}}}, {"name": "StatefulPartitionedCall/sequential/hub_keras_layer_v1v2/StatefulPartitionedCall/efficientnet-lite4/model/blocks_25/depthwise_conv2d/depthwise_bn_offset", "op": "Const", "attr": {"value": {"tensor": {"dtype": "DT_FLOAT", "tensorShape": {"dim": [{"size": "1632"}]}}}, "dtype": {"type": "DT_FLOAT"}}}, {"name": "StatefulPartitionedCall/sequential/hub_keras_layer_v1v2/StatefulPartitionedCall/efficientnet-lite4/model/blocks_5/depthwise_conv2d/depthwise_weights", "op": "Const", "attr": {"dtype": {"type": "DT_FLOAT"}, "value": {"tensor": {"dtype": "DT_FLOAT", "tensorShape": {"dim": [{"size": "5"}, {"size": "5"}, {"size": "192"}, {"size": "1"}]}}}}}, {"name": "StatefulPartitionedCall/sequential/hub_keras_layer_v1v2/StatefulPartitionedCall/efficientnet-lite4/model/blocks_5/depthwise_conv2d/depthwise_bn_offset", "op": "Const", "attr": {"dtype": {"type": "DT_FLOAT"}, "value": {"tensor": {"dtype": "DT_FLOAT", "tensorShape": {"dim": [{"size": "192"}]}}}}}, {"name": "StatefulPartitionedCall/sequential/hub_keras_layer_v1v2/StatefulPartitionedCall/efficientnet-lite4/model/blocks_5/conv2d_1/Conv2D_weights", "op": "Const", "attr": {"dtype": {"type": "DT_FLOAT"}, "value": {"tensor": {"dtype": "DT_FLOAT", "tensorShape": {"dim": [{"size": "1"}, {"size": "1"}, {"size": "192"}, {"size": "56"}]}}}}}, {"name": "StatefulPartitionedCall/sequential/hub_keras_layer_v1v2/StatefulPartitionedCall/efficientnet-lite4/model/blocks_5/conv2d_1/Conv2D_bn_offset", "op": "Const", "attr": {"value": {"tensor": {"dtype": "DT_FLOAT", "tensorShape": {"dim": [{"size": "56"}]}}}, "dtype": {"type": "DT_FLOAT"}}}, {"name": "StatefulPartitionedCall/sequential/hub_keras_layer_v1v2/StatefulPartitionedCall/efficientnet-lite4/model/blocks_6/conv2d/Conv2D_weights", "op": "Const", "attr": {"dtype": {"type": "DT_FLOAT"}, "value": {"tensor": {"dtype": "DT_FLOAT", "tensorShape": {"dim": [{"size": "1"}, {"size": "1"}, {"size": "56"}, {"size": "336"}]}}}}}, {"name": "StatefulPartitionedCall/sequential/hub_keras_layer_v1v2/StatefulPartitionedCall/efficientnet-lite4/model/blocks_6/conv2d/Conv2D_bn_offset", "op": "Const", "attr": {"value": {"tensor": {"dtype": "DT_FLOAT", "tensorShape": {"dim": [{"size": "336"}]}}}, "dtype": {"type": "DT_FLOAT"}}}, {"name": "StatefulPartitionedCall/sequential/hub_keras_layer_v1v2/StatefulPartitionedCall/efficientnet-lite4/model/blocks_25/conv2d_1/Conv2D_weights", "op": "Const", "attr": {"value": {"tensor": {"dtype": "DT_FLOAT", "tensorShape": {"dim": [{"size": "1"}, {"size": "1"}, {"size": "1632"}, {"size": "272"}]}}}, "dtype": {"type": "DT_FLOAT"}}}, {"name": "StatefulPartitionedCall/sequential/hub_keras_layer_v1v2/StatefulPartitionedCall/efficientnet-lite4/model/blocks_6/depthwise_conv2d/depthwise_weights", "op": "Const", "attr": {"dtype": {"type": "DT_FLOAT"}, "value": {"tensor": {"dtype": "DT_FLOAT", "tensorShape": {"dim": [{"size": "5"}, {"size": "5"}, {"size": "336"}, {"size": "1"}]}}}}}, {"name": "StatefulPartitionedCall/sequential/hub_keras_layer_v1v2/StatefulPartitionedCall/efficientnet-lite4/model/blocks_6/depthwise_conv2d/depthwise_bn_offset", "op": "Const", "attr": {"dtype": {"type": "DT_FLOAT"}, "value": {"tensor": {"dtype": "DT_FLOAT", "tensorShape": {"dim": [{"size": "336"}]}}}}}, {"name": "StatefulPartitionedCall/sequential/hub_keras_layer_v1v2/StatefulPartitionedCall/efficientnet-lite4/model/blocks_6/conv2d_1/Conv2D_weights", "op": "Const", "attr": {"value": {"tensor": {"dtype": "DT_FLOAT", "tensorShape": {"dim": [{"size": "1"}, {"size": "1"}, {"size": "336"}, {"size": "56"}]}}}, "dtype": {"type": "DT_FLOAT"}}}, {"name": "StatefulPartitionedCall/sequential/hub_keras_layer_v1v2/StatefulPartitionedCall/efficientnet-lite4/model/blocks_6/conv2d_1/Conv2D_bn_offset", "op": "Const", "attr": {"dtype": {"type": "DT_FLOAT"}, "value": {"tensor": {"dtype": "DT_FLOAT", "tensorShape": {"dim": [{"size": "56"}]}}}}}, {"name": "StatefulPartitionedCall/sequential/hub_keras_layer_v1v2/StatefulPartitionedCall/efficientnet-lite4/model/blocks_7/conv2d/Conv2D_weights", "op": "Const", "attr": {"dtype": {"type": "DT_FLOAT"}, "value": {"tensor": {"dtype": "DT_FLOAT", "tensorShape": {"dim": [{"size": "1"}, {"size": "1"}, {"size": "56"}, {"size": "336"}]}}}}}, {"name": "StatefulPartitionedCall/sequential/hub_keras_layer_v1v2/StatefulPartitionedCall/efficientnet-lite4/model/blocks_25/conv2d_1/Conv2D_bn_offset", "op": "Const", "attr": {"dtype": {"type": "DT_FLOAT"}, "value": {"tensor": {"dtype": "DT_FLOAT", "tensorShape": {"dim": [{"size": "272"}]}}}}}, {"name": "StatefulPartitionedCall/sequential/hub_keras_layer_v1v2/StatefulPartitionedCall/efficientnet-lite4/model/blocks_7/conv2d/Conv2D_bn_offset", "op": "Const", "attr": {"dtype": {"type": "DT_FLOAT"}, "value": {"tensor": {"dtype": "DT_FLOAT", "tensorShape": {"dim": [{"size": "336"}]}}}}}, {"name": "StatefulPartitionedCall/sequential/hub_keras_layer_v1v2/StatefulPartitionedCall/efficientnet-lite4/model/blocks_7/depthwise_conv2d/depthwise_weights", "op": "Const", "attr": {"value": {"tensor": {"dtype": "DT_FLOAT", "tensorShape": {"dim": [{"size": "5"}, {"size": "5"}, {"size": "336"}, {"size": "1"}]}}}, "dtype": {"type": "DT_FLOAT"}}}, {"name": "StatefulPartitionedCall/sequential/hub_keras_layer_v1v2/StatefulPartitionedCall/efficientnet-lite4/model/blocks_7/depthwise_conv2d/depthwise_bn_offset", "op": "Const", "attr": {"value": {"tensor": {"dtype": "DT_FLOAT", "tensorShape": {"dim": [{"size": "336"}]}}}, "dtype": {"type": "DT_FLOAT"}}}, {"name": "StatefulPartitionedCall/sequential/hub_keras_layer_v1v2/StatefulPartitionedCall/efficientnet-lite4/model/blocks_7/conv2d_1/Conv2D_weights", "op": "Const", "attr": {"value": {"tensor": {"dtype": "DT_FLOAT", "tensorShape": {"dim": [{"size": "1"}, {"size": "1"}, {"size": "336"}, {"size": "56"}]}}}, "dtype": {"type": "DT_FLOAT"}}}, {"name": "StatefulPartitionedCall/sequential/hub_keras_layer_v1v2/StatefulPartitionedCall/efficientnet-lite4/model/blocks_7/conv2d_1/Conv2D_bn_offset", "op": "Const", "attr": {"value": {"tensor": {"dtype": "DT_FLOAT", "tensorShape": {"dim": [{"size": "56"}]}}}, "dtype": {"type": "DT_FLOAT"}}}, {"name": "StatefulPartitionedCall/sequential/hub_keras_layer_v1v2/StatefulPartitionedCall/efficientnet-lite4/model/blocks_8/conv2d/Conv2D_weights", "op": "Const", "attr": {"value": {"tensor": {"dtype": "DT_FLOAT", "tensorShape": {"dim": [{"size": "1"}, {"size": "1"}, {"size": "56"}, {"size": "336"}]}}}, "dtype": {"type": "DT_FLOAT"}}}, {"name": "StatefulPartitionedCall/sequential/hub_keras_layer_v1v2/StatefulPartitionedCall/efficientnet-lite4/model/blocks_26/conv2d/Conv2D_weights", "op": "Const", "attr": {"value": {"tensor": {"dtype": "DT_FLOAT", "tensorShape": {"dim": [{"size": "1"}, {"size": "1"}, {"size": "272"}, {"size": "1632"}]}}}, "dtype": {"type": "DT_FLOAT"}}}, {"name": "StatefulPartitionedCall/sequential/hub_keras_layer_v1v2/StatefulPartitionedCall/efficientnet-lite4/model/blocks_8/conv2d/Conv2D_bn_offset", "op": "Const", "attr": {"dtype": {"type": "DT_FLOAT"}, "value": {"tensor": {"dtype": "DT_FLOAT", "tensorShape": {"dim": [{"size": "336"}]}}}}}, {"name": "StatefulPartitionedCall/sequential/hub_keras_layer_v1v2/StatefulPartitionedCall/efficientnet-lite4/model/blocks_8/depthwise_conv2d/depthwise_weights", "op": "Const", "attr": {"dtype": {"type": "DT_FLOAT"}, "value": {"tensor": {"dtype": "DT_FLOAT", "tensorShape": {"dim": [{"size": "5"}, {"size": "5"}, {"size": "336"}, {"size": "1"}]}}}}}, {"name": "StatefulPartitionedCall/sequential/hub_keras_layer_v1v2/StatefulPartitionedCall/efficientnet-lite4/model/blocks_8/depthwise_conv2d/depthwise_bn_offset", "op": "Const", "attr": {"dtype": {"type": "DT_FLOAT"}, "value": {"tensor": {"dtype": "DT_FLOAT", "tensorShape": {"dim": [{"size": "336"}]}}}}}, {"name": "StatefulPartitionedCall/sequential/hub_keras_layer_v1v2/StatefulPartitionedCall/efficientnet-lite4/model/blocks_8/conv2d_1/Conv2D_weights", "op": "Const", "attr": {"dtype": {"type": "DT_FLOAT"}, "value": {"tensor": {"dtype": "DT_FLOAT", "tensorShape": {"dim": [{"size": "1"}, {"size": "1"}, {"size": "336"}, {"size": "56"}]}}}}}, {"name": "StatefulPartitionedCall/sequential/hub_keras_layer_v1v2/StatefulPartitionedCall/efficientnet-lite4/model/blocks_26/conv2d/Conv2D_bn_offset", "op": "Const", "attr": {"dtype": {"type": "DT_FLOAT"}, "value": {"tensor": {"dtype": "DT_FLOAT", "tensorShape": {"dim": [{"size": "1632"}]}}}}}, {"name": "StatefulPartitionedCall/sequential/hub_keras_layer_v1v2/StatefulPartitionedCall/efficientnet-lite4/model/blocks_8/conv2d_1/Conv2D_bn_offset", "op": "Const", "attr": {"value": {"tensor": {"dtype": "DT_FLOAT", "tensorShape": {"dim": [{"size": "56"}]}}}, "dtype": {"type": "DT_FLOAT"}}}, {"name": "StatefulPartitionedCall/sequential/hub_keras_layer_v1v2/StatefulPartitionedCall/efficientnet-lite4/model/blocks_9/conv2d/Conv2D_weights", "op": "Const", "attr": {"dtype": {"type": "DT_FLOAT"}, "value": {"tensor": {"dtype": "DT_FLOAT", "tensorShape": {"dim": [{"size": "1"}, {"size": "1"}, {"size": "56"}, {"size": "336"}]}}}}}, {"name": "StatefulPartitionedCall/sequential/hub_keras_layer_v1v2/StatefulPartitionedCall/efficientnet-lite4/model/blocks_29/conv2d_1/Conv2D_weights", "op": "Const", "attr": {"dtype": {"type": "DT_FLOAT"}, "value": {"tensor": {"dtype": "DT_FLOAT", "tensorShape": {"dim": [{"size": "1"}, {"size": "1"}, {"size": "1632"}, {"size": "448"}]}}}}}, {"name": "StatefulPartitionedCall/sequential/hub_keras_layer_v1v2/StatefulPartitionedCall/efficientnet-lite4/model/blocks_9/conv2d/Conv2D_bn_offset", "op": "Const", "attr": {"dtype": {"type": "DT_FLOAT"}, "value": {"tensor": {"dtype": "DT_FLOAT", "tensorShape": {"dim": [{"size": "336"}]}}}}}, {"name": "StatefulPartitionedCall/sequential/hub_keras_layer_v1v2/StatefulPartitionedCall/efficientnet-lite4/model/blocks_9/depthwise_conv2d/depthwise_weights", "op": "Const", "attr": {"value": {"tensor": {"dtype": "DT_FLOAT", "tensorShape": {"dim": [{"size": "3"}, {"size": "3"}, {"size": "336"}, {"size": "1"}]}}}, "dtype": {"type": "DT_FLOAT"}}}, {"name": "StatefulPartitionedCall/sequential/hub_keras_layer_v1v2/StatefulPartitionedCall/efficientnet-lite4/model/blocks_9/depthwise_conv2d/depthwise_bn_offset", "op": "Const", "attr": {"value": {"tensor": {"dtype": "DT_FLOAT", "tensorShape": {"dim": [{"size": "336"}]}}}, "dtype": {"type": "DT_FLOAT"}}}, {"name": "StatefulPartitionedCall/sequential/hub_keras_layer_v1v2/StatefulPartitionedCall/efficientnet-lite4/model/blocks_9/conv2d_1/Conv2D_weights", "op": "Const", "attr": {"dtype": {"type": "DT_FLOAT"}, "value": {"tensor": {"dtype": "DT_FLOAT", "tensorShape": {"dim": [{"size": "1"}, {"size": "1"}, {"size": "336"}, {"size": "112"}]}}}}}, {"name": "StatefulPartitionedCall/sequential/hub_keras_layer_v1v2/StatefulPartitionedCall/efficientnet-lite4/model/blocks_26/depthwise_conv2d/depthwise_weights", "op": "Const", "attr": {"value": {"tensor": {"dtype": "DT_FLOAT", "tensorShape": {"dim": [{"size": "5"}, {"size": "5"}, {"size": "1632"}, {"size": "1"}]}}}, "dtype": {"type": "DT_FLOAT"}}}, {"name": "StatefulPartitionedCall/sequential/hub_keras_layer_v1v2/StatefulPartitionedCall/efficientnet-lite4/model/blocks_9/conv2d_1/Conv2D_bn_offset", "op": "Const", "attr": {"dtype": {"type": "DT_FLOAT"}, "value": {"tensor": {"dtype": "DT_FLOAT", "tensorShape": {"dim": [{"size": "112"}]}}}}}, {"name": "StatefulPartitionedCall/sequential/hub_keras_layer_v1v2/StatefulPartitionedCall/efficientnet-lite4/model/blocks_10/conv2d/Conv2D_weights", "op": "Const", "attr": {"dtype": {"type": "DT_FLOAT"}, "value": {"tensor": {"dtype": "DT_FLOAT", "tensorShape": {"dim": [{"size": "1"}, {"size": "1"}, {"size": "112"}, {"size": "672"}]}}}}}, {"name": "StatefulPartitionedCall/sequential/hub_keras_layer_v1v2/StatefulPartitionedCall/efficientnet-lite4/model/blocks_10/conv2d/Conv2D_bn_offset", "op": "Const", "attr": {"dtype": {"type": "DT_FLOAT"}, "value": {"tensor": {"dtype": "DT_FLOAT", "tensorShape": {"dim": [{"size": "672"}]}}}}}, {"name": "StatefulPartitionedCall/sequential/hub_keras_layer_v1v2/StatefulPartitionedCall/efficientnet-lite4/model/blocks_26/depthwise_conv2d/depthwise_bn_offset", "op": "Const", "attr": {"value": {"tensor": {"dtype": "DT_FLOAT", "tensorShape": {"dim": [{"size": "1632"}]}}}, "dtype": {"type": "DT_FLOAT"}}}, {"name": "StatefulPartitionedCall/sequential/hub_keras_layer_v1v2/StatefulPartitionedCall/efficientnet-lite4/model/blocks_10/depthwise_conv2d/depthwise_weights", "op": "Const", "attr": {"dtype": {"type": "DT_FLOAT"}, "value": {"tensor": {"dtype": "DT_FLOAT", "tensorShape": {"dim": [{"size": "3"}, {"size": "3"}, {"size": "672"}, {"size": "1"}]}}}}}, {"name": "StatefulPartitionedCall/sequential/hub_keras_layer_v1v2/StatefulPartitionedCall/efficientnet-lite4/model/blocks_10/depthwise_conv2d/depthwise_bn_offset", "op": "Const", "attr": {"dtype": {"type": "DT_FLOAT"}, "value": {"tensor": {"dtype": "DT_FLOAT", "tensorShape": {"dim": [{"size": "672"}]}}}}}, {"name": "StatefulPartitionedCall/sequential/hub_keras_layer_v1v2/StatefulPartitionedCall/efficientnet-lite4/model/blocks_10/conv2d_1/Conv2D_weights", "op": "Const", "attr": {"dtype": {"type": "DT_FLOAT"}, "value": {"tensor": {"dtype": "DT_FLOAT", "tensorShape": {"dim": [{"size": "1"}, {"size": "1"}, {"size": "672"}, {"size": "112"}]}}}}}, {"name": "StatefulPartitionedCall/sequential/hub_keras_layer_v1v2/StatefulPartitionedCall/efficientnet-lite4/model/blocks_10/conv2d_1/Conv2D_bn_offset", "op": "Const", "attr": {"value": {"tensor": {"dtype": "DT_FLOAT", "tensorShape": {"dim": [{"size": "112"}]}}}, "dtype": {"type": "DT_FLOAT"}}}, {"name": "StatefulPartitionedCall/sequential/hub_keras_layer_v1v2/StatefulPartitionedCall/efficientnet-lite4/model/blocks_11/conv2d/Conv2D_weights", "op": "Const", "attr": {"dtype": {"type": "DT_FLOAT"}, "value": {"tensor": {"dtype": "DT_FLOAT", "tensorShape": {"dim": [{"size": "1"}, {"size": "1"}, {"size": "112"}, {"size": "672"}]}}}}}, {"name": "StatefulPartitionedCall/sequential/hub_keras_layer_v1v2/StatefulPartitionedCall/efficientnet-lite4/model/blocks_11/conv2d/Conv2D_bn_offset", "op": "Const", "attr": {"dtype": {"type": "DT_FLOAT"}, "value": {"tensor": {"dtype": "DT_FLOAT", "tensorShape": {"dim": [{"size": "672"}]}}}}}, {"name": "StatefulPartitionedCall/sequential/hub_keras_layer_v1v2/StatefulPartitionedCall/efficientnet-lite4/model/blocks_26/conv2d_1/Conv2D_weights", "op": "Const", "attr": {"dtype": {"type": "DT_FLOAT"}, "value": {"tensor": {"dtype": "DT_FLOAT", "tensorShape": {"dim": [{"size": "1"}, {"size": "1"}, {"size": "1632"}, {"size": "272"}]}}}}}, {"name": "StatefulPartitionedCall/sequential/hub_keras_layer_v1v2/StatefulPartitionedCall/efficientnet-lite4/model/blocks_11/depthwise_conv2d/depthwise_weights", "op": "Const", "attr": {"dtype": {"type": "DT_FLOAT"}, "value": {"tensor": {"dtype": "DT_FLOAT", "tensorShape": {"dim": [{"size": "3"}, {"size": "3"}, {"size": "672"}, {"size": "1"}]}}}}}, {"name": "StatefulPartitionedCall/sequential/hub_keras_layer_v1v2/StatefulPartitionedCall/efficientnet-lite4/model/blocks_11/depthwise_conv2d/depthwise_bn_offset", "op": "Const", "attr": {"dtype": {"type": "DT_FLOAT"}, "value": {"tensor": {"dtype": "DT_FLOAT", "tensorShape": {"dim": [{"size": "672"}]}}}}}, {"name": "StatefulPartitionedCall/sequential/hub_keras_layer_v1v2/StatefulPartitionedCall/efficientnet-lite4/model/blocks_11/conv2d_1/Conv2D_weights", "op": "Const", "attr": {"value": {"tensor": {"dtype": "DT_FLOAT", "tensorShape": {"dim": [{"size": "1"}, {"size": "1"}, {"size": "672"}, {"size": "112"}]}}}, "dtype": {"type": "DT_FLOAT"}}}, {"name": "StatefulPartitionedCall/sequential/hub_keras_layer_v1v2/StatefulPartitionedCall/efficientnet-lite4/model/blocks_11/conv2d_1/Conv2D_bn_offset", "op": "Const", "attr": {"value": {"tensor": {"dtype": "DT_FLOAT", "tensorShape": {"dim": [{"size": "112"}]}}}, "dtype": {"type": "DT_FLOAT"}}}, {"name": "StatefulPartitionedCall/sequential/hub_keras_layer_v1v2/StatefulPartitionedCall/efficientnet-lite4/model/blocks_12/conv2d/Conv2D_weights", "op": "Const", "attr": {"value": {"tensor": {"dtype": "DT_FLOAT", "tensorShape": {"dim": [{"size": "1"}, {"size": "1"}, {"size": "112"}, {"size": "672"}]}}}, "dtype": {"type": "DT_FLOAT"}}}, {"name": "StatefulPartitionedCall/sequential/hub_keras_layer_v1v2/StatefulPartitionedCall/efficientnet-lite4/model/blocks_26/conv2d_1/Conv2D_bn_offset", "op": "Const", "attr": {"dtype": {"type": "DT_FLOAT"}, "value": {"tensor": {"dtype": "DT_FLOAT", "tensorShape": {"dim": [{"size": "272"}]}}}}}, {"name": "StatefulPartitionedCall/sequential/hub_keras_layer_v1v2/StatefulPartitionedCall/efficientnet-lite4/model/blocks_12/conv2d/Conv2D_bn_offset", "op": "Const", "attr": {"dtype": {"type": "DT_FLOAT"}, "value": {"tensor": {"dtype": "DT_FLOAT", "tensorShape": {"dim": [{"size": "672"}]}}}}}, {"name": "StatefulPartitionedCall/sequential/hub_keras_layer_v1v2/StatefulPartitionedCall/efficientnet-lite4/model/blocks_12/depthwise_conv2d/depthwise_weights", "op": "Const", "attr": {"value": {"tensor": {"dtype": "DT_FLOAT", "tensorShape": {"dim": [{"size": "3"}, {"size": "3"}, {"size": "672"}, {"size": "1"}]}}}, "dtype": {"type": "DT_FLOAT"}}}, {"name": "StatefulPartitionedCall/sequential/hub_keras_layer_v1v2/StatefulPartitionedCall/efficientnet-lite4/model/blocks_12/depthwise_conv2d/depthwise_bn_offset", "op": "Const", "attr": {"value": {"tensor": {"dtype": "DT_FLOAT", "tensorShape": {"dim": [{"size": "672"}]}}}, "dtype": {"type": "DT_FLOAT"}}}, {"name": "StatefulPartitionedCall/sequential/hub_keras_layer_v1v2/StatefulPartitionedCall/efficientnet-lite4/model/blocks_12/conv2d_1/Conv2D_weights", "op": "Const", "attr": {"dtype": {"type": "DT_FLOAT"}, "value": {"tensor": {"dtype": "DT_FLOAT", "tensorShape": {"dim": [{"size": "1"}, {"size": "1"}, {"size": "672"}, {"size": "112"}]}}}}}, {"name": "StatefulPartitionedCall/sequential/hub_keras_layer_v1v2/StatefulPartitionedCall/efficientnet-lite4/model/blocks_12/conv2d_1/Conv2D_bn_offset", "op": "Const", "attr": {"dtype": {"type": "DT_FLOAT"}, "value": {"tensor": {"dtype": "DT_FLOAT", "tensorShape": {"dim": [{"size": "112"}]}}}}}, {"name": "StatefulPartitionedCall/sequential/hub_keras_layer_v1v2/StatefulPartitionedCall/efficientnet-lite4/model/blocks_13/conv2d/Conv2D_weights", "op": "Const", "attr": {"value": {"tensor": {"dtype": "DT_FLOAT", "tensorShape": {"dim": [{"size": "1"}, {"size": "1"}, {"size": "112"}, {"size": "672"}]}}}, "dtype": {"type": "DT_FLOAT"}}}, {"name": "StatefulPartitionedCall/sequential/hub_keras_layer_v1v2/StatefulPartitionedCall/efficientnet-lite4/model/blocks_27/conv2d/Conv2D_weights", "op": "Const", "attr": {"dtype": {"type": "DT_FLOAT"}, "value": {"tensor": {"dtype": "DT_FLOAT", "tensorShape": {"dim": [{"size": "1"}, {"size": "1"}, {"size": "272"}, {"size": "1632"}]}}}}}, {"name": "StatefulPartitionedCall/sequential/hub_keras_layer_v1v2/StatefulPartitionedCall/efficientnet-lite4/model/blocks_13/conv2d/Conv2D_bn_offset", "op": "Const", "attr": {"value": {"tensor": {"dtype": "DT_FLOAT", "tensorShape": {"dim": [{"size": "672"}]}}}, "dtype": {"type": "DT_FLOAT"}}}, {"name": "StatefulPartitionedCall/sequential/hub_keras_layer_v1v2/StatefulPartitionedCall/efficientnet-lite4/model/blocks_29/conv2d_1/Conv2D_bn_offset", "op": "Const", "attr": {"dtype": {"type": "DT_FLOAT"}, "value": {"tensor": {"dtype": "DT_FLOAT", "tensorShape": {"dim": [{"size": "448"}]}}}}}, {"name": "StatefulPartitionedCall/sequential/hub_keras_layer_v1v2/StatefulPartitionedCall/efficientnet-lite4/model/blocks_13/depthwise_conv2d/depthwise_weights", "op": "Const", "attr": {"value": {"tensor": {"dtype": "DT_FLOAT", "tensorShape": {"dim": [{"size": "3"}, {"size": "3"}, {"size": "672"}, {"size": "1"}]}}}, "dtype": {"type": "DT_FLOAT"}}}, {"name": "StatefulPartitionedCall/sequential/hub_keras_layer_v1v2/StatefulPartitionedCall/efficientnet-lite4/model/blocks_13/depthwise_conv2d/depthwise_bn_offset", "op": "Const", "attr": {"value": {"tensor": {"dtype": "DT_FLOAT", "tensorShape": {"dim": [{"size": "672"}]}}}, "dtype": {"type": "DT_FLOAT"}}}, {"name": "StatefulPartitionedCall/sequential/hub_keras_layer_v1v2/StatefulPartitionedCall/efficientnet-lite4/model/blocks_13/conv2d_1/Conv2D_weights", "op": "Const", "attr": {"dtype": {"type": "DT_FLOAT"}, "value": {"tensor": {"dtype": "DT_FLOAT", "tensorShape": {"dim": [{"size": "1"}, {"size": "1"}, {"size": "672"}, {"size": "112"}]}}}}}, {"name": "StatefulPartitionedCall/sequential/hub_keras_layer_v1v2/StatefulPartitionedCall/efficientnet-lite4/model/blocks_27/conv2d/Conv2D_bn_offset", "op": "Const", "attr": {"value": {"tensor": {"dtype": "DT_FLOAT", "tensorShape": {"dim": [{"size": "1632"}]}}}, "dtype": {"type": "DT_FLOAT"}}}, {"name": "StatefulPartitionedCall/sequential/hub_keras_layer_v1v2/StatefulPartitionedCall/efficientnet-lite4/model/blocks_13/conv2d_1/Conv2D_bn_offset", "op": "Const", "attr": {"dtype": {"type": "DT_FLOAT"}, "value": {"tensor": {"dtype": "DT_FLOAT", "tensorShape": {"dim": [{"size": "112"}]}}}}}, {"name": "StatefulPartitionedCall/sequential/hub_keras_layer_v1v2/StatefulPartitionedCall/efficientnet-lite4/model/blocks_14/conv2d/Conv2D_weights", "op": "Const", "attr": {"value": {"tensor": {"dtype": "DT_FLOAT", "tensorShape": {"dim": [{"size": "1"}, {"size": "1"}, {"size": "112"}, {"size": "672"}]}}}, "dtype": {"type": "DT_FLOAT"}}}, {"name": "StatefulPartitionedCall/sequential/hub_keras_layer_v1v2/StatefulPartitionedCall/efficientnet-lite4/model/blocks_14/conv2d/Conv2D_bn_offset", "op": "Const", "attr": {"dtype": {"type": "DT_FLOAT"}, "value": {"tensor": {"dtype": "DT_FLOAT", "tensorShape": {"dim": [{"size": "672"}]}}}}}, {"name": "StatefulPartitionedCall/sequential/hub_keras_layer_v1v2/StatefulPartitionedCall/efficientnet-lite4/model/blocks_14/depthwise_conv2d/depthwise_weights", "op": "Const", "attr": {"dtype": {"type": "DT_FLOAT"}, "value": {"tensor": {"dtype": "DT_FLOAT", "tensorShape": {"dim": [{"size": "3"}, {"size": "3"}, {"size": "672"}, {"size": "1"}]}}}}}, {"name": "StatefulPartitionedCall/sequential/hub_keras_layer_v1v2/StatefulPartitionedCall/efficientnet-lite4/model/blocks_14/depthwise_conv2d/depthwise_bn_offset", "op": "Const", "attr": {"value": {"tensor": {"dtype": "DT_FLOAT", "tensorShape": {"dim": [{"size": "672"}]}}}, "dtype": {"type": "DT_FLOAT"}}}, {"name": "StatefulPartitionedCall/sequential/hub_keras_layer_v1v2/StatefulPartitionedCall/efficientnet-lite4/model/blocks_14/conv2d_1/Conv2D_weights", "op": "Const", "attr": {"value": {"tensor": {"dtype": "DT_FLOAT", "tensorShape": {"dim": [{"size": "1"}, {"size": "1"}, {"size": "672"}, {"size": "112"}]}}}, "dtype": {"type": "DT_FLOAT"}}}, {"name": "StatefulPartitionedCall/sequential/hub_keras_layer_v1v2/StatefulPartitionedCall/efficientnet-lite4/model/blocks_27/depthwise_conv2d/depthwise_weights", "op": "Const", "attr": {"value": {"tensor": {"dtype": "DT_FLOAT", "tensorShape": {"dim": [{"size": "5"}, {"size": "5"}, {"size": "1632"}, {"size": "1"}]}}}, "dtype": {"type": "DT_FLOAT"}}}, {"name": "StatefulPartitionedCall/sequential/hub_keras_layer_v1v2/StatefulPartitionedCall/efficientnet-lite4/model/blocks_14/conv2d_1/Conv2D_bn_offset", "op": "Const", "attr": {"dtype": {"type": "DT_FLOAT"}, "value": {"tensor": {"dtype": "DT_FLOAT", "tensorShape": {"dim": [{"size": "112"}]}}}}}, {"name": "StatefulPartitionedCall/sequential/hub_keras_layer_v1v2/StatefulPartitionedCall/efficientnet-lite4/model/blocks_15/conv2d/Conv2D_weights", "op": "Const", "attr": {"value": {"tensor": {"dtype": "DT_FLOAT", "tensorShape": {"dim": [{"size": "1"}, {"size": "1"}, {"size": "112"}, {"size": "672"}]}}}, "dtype": {"type": "DT_FLOAT"}}}, {"name": "StatefulPartitionedCall/sequential/hub_keras_layer_v1v2/StatefulPartitionedCall/efficientnet-lite4/model/blocks_15/conv2d/Conv2D_bn_offset", "op": "Const", "attr": {"dtype": {"type": "DT_FLOAT"}, "value": {"tensor": {"dtype": "DT_FLOAT", "tensorShape": {"dim": [{"size": "672"}]}}}}}, {"name": "StatefulPartitionedCall/sequential/hub_keras_layer_v1v2/StatefulPartitionedCall/efficientnet-lite4/model/blocks_27/depthwise_conv2d/depthwise_bn_offset", "op": "Const", "attr": {"value": {"tensor": {"dtype": "DT_FLOAT", "tensorShape": {"dim": [{"size": "1632"}]}}}, "dtype": {"type": "DT_FLOAT"}}}, {"name": "StatefulPartitionedCall/sequential/hub_keras_layer_v1v2/StatefulPartitionedCall/efficientnet-lite4/model/blocks_15/depthwise_conv2d/depthwise_weights", "op": "Const", "attr": {"value": {"tensor": {"dtype": "DT_FLOAT", "tensorShape": {"dim": [{"size": "5"}, {"size": "5"}, {"size": "672"}, {"size": "1"}]}}}, "dtype": {"type": "DT_FLOAT"}}}, {"name": "StatefulPartitionedCall/sequential/hub_keras_layer_v1v2/StatefulPartitionedCall/efficientnet-lite4/model/blocks_15/depthwise_conv2d/depthwise_bn_offset", "op": "Const", "attr": {"dtype": {"type": "DT_FLOAT"}, "value": {"tensor": {"dtype": "DT_FLOAT", "tensorShape": {"dim": [{"size": "672"}]}}}}}, {"name": "StatefulPartitionedCall/sequential/hub_keras_layer_v1v2/StatefulPartitionedCall/efficientnet-lite4/model/blocks_15/conv2d_1/Conv2D_weights", "op": "Const", "attr": {"value": {"tensor": {"dtype": "DT_FLOAT", "tensorShape": {"dim": [{"size": "1"}, {"size": "1"}, {"size": "672"}, {"size": "160"}]}}}, "dtype": {"type": "DT_FLOAT"}}}, {"name": "StatefulPartitionedCall/sequential/hub_keras_layer_v1v2/StatefulPartitionedCall/efficientnet-lite4/model/blocks_15/conv2d_1/Conv2D_bn_offset", "op": "Const", "attr": {"value": {"tensor": {"dtype": "DT_FLOAT", "tensorShape": {"dim": [{"size": "160"}]}}}, "dtype": {"type": "DT_FLOAT"}}}, {"name": "StatefulPartitionedCall/sequential/hub_keras_layer_v1v2/StatefulPartitionedCall/efficientnet-lite4/model/blocks_16/conv2d/Conv2D_weights", "op": "Const", "attr": {"value": {"tensor": {"dtype": "DT_FLOAT", "tensorShape": {"dim": [{"size": "1"}, {"size": "1"}, {"size": "160"}, {"size": "960"}]}}}, "dtype": {"type": "DT_FLOAT"}}}, {"name": "StatefulPartitionedCall/sequential/hub_keras_layer_v1v2/StatefulPartitionedCall/efficientnet-lite4/model/blocks_16/conv2d/Conv2D_bn_offset", "op": "Const", "attr": {"value": {"tensor": {"dtype": "DT_FLOAT", "tensorShape": {"dim": [{"size": "960"}]}}}, "dtype": {"type": "DT_FLOAT"}}}, {"name": "StatefulPartitionedCall/sequential/hub_keras_layer_v1v2/StatefulPartitionedCall/efficientnet-lite4/model/blocks_27/conv2d_1/Conv2D_weights", "op": "Const", "attr": {"value": {"tensor": {"dtype": "DT_FLOAT", "tensorShape": {"dim": [{"size": "1"}, {"size": "1"}, {"size": "1632"}, {"size": "272"}]}}}, "dtype": {"type": "DT_FLOAT"}}}, {"name": "StatefulPartitionedCall/sequential/hub_keras_layer_v1v2/StatefulPartitionedCall/efficientnet-lite4/model/blocks_16/depthwise_conv2d/depthwise_weights", "op": "Const", "attr": {"dtype": {"type": "DT_FLOAT"}, "value": {"tensor": {"dtype": "DT_FLOAT", "tensorShape": {"dim": [{"size": "5"}, {"size": "5"}, {"size": "960"}, {"size": "1"}]}}}}}, {"name": "StatefulPartitionedCall/sequential/hub_keras_layer_v1v2/StatefulPartitionedCall/efficientnet-lite4/model/blocks_16/depthwise_conv2d/depthwise_bn_offset", "op": "Const", "attr": {"value": {"tensor": {"dtype": "DT_FLOAT", "tensorShape": {"dim": [{"size": "960"}]}}}, "dtype": {"type": "DT_FLOAT"}}}, {"name": "StatefulPartitionedCall/sequential/hub_keras_layer_v1v2/StatefulPartitionedCall/efficientnet-lite4/model/blocks_16/conv2d_1/Conv2D_weights", "op": "Const", "attr": {"value": {"tensor": {"dtype": "DT_FLOAT", "tensorShape": {"dim": [{"size": "1"}, {"size": "1"}, {"size": "960"}, {"size": "160"}]}}}, "dtype": {"type": "DT_FLOAT"}}}, {"name": "StatefulPartitionedCall/sequential/hub_keras_layer_v1v2/StatefulPartitionedCall/efficientnet-lite4/model/head/conv2d/Conv2D_weights", "op": "Const", "attr": {"value": {"tensor": {"dtype": "DT_FLOAT", "tensorShape": {"dim": [{"size": "1"}, {"size": "1"}, {"size": "448"}, {"size": "1280"}]}}}, "dtype": {"type": "DT_FLOAT"}}}, {"name": "StatefulPartitionedCall/sequential/hub_keras_layer_v1v2/StatefulPartitionedCall/efficientnet-lite4/model/blocks_16/conv2d_1/Conv2D_bn_offset", "op": "Const", "attr": {"value": {"tensor": {"dtype": "DT_FLOAT", "tensorShape": {"dim": [{"size": "160"}]}}}, "dtype": {"type": "DT_FLOAT"}}}, {"name": "StatefulPartitionedCall/sequential/hub_keras_layer_v1v2/StatefulPartitionedCall/efficientnet-lite4/model/blocks_17/conv2d/Conv2D_weights", "op": "Const", "attr": {"dtype": {"type": "DT_FLOAT"}, "value": {"tensor": {"dtype": "DT_FLOAT", "tensorShape": {"dim": [{"size": "1"}, {"size": "1"}, {"size": "160"}, {"size": "960"}]}}}}}, {"name": "StatefulPartitionedCall/sequential/hub_keras_layer_v1v2/StatefulPartitionedCall/efficientnet-lite4/model/blocks_27/conv2d_1/Conv2D_bn_offset", "op": "Const", "attr": {"value": {"tensor": {"dtype": "DT_FLOAT", "tensorShape": {"dim": [{"size": "272"}]}}}, "dtype": {"type": "DT_FLOAT"}}}, {"name": "StatefulPartitionedCall/sequential/hub_keras_layer_v1v2/StatefulPartitionedCall/efficientnet-lite4/model/blocks_17/conv2d/Conv2D_bn_offset", "op": "Const", "attr": {"value": {"tensor": {"dtype": "DT_FLOAT", "tensorShape": {"dim": [{"size": "960"}]}}}, "dtype": {"type": "DT_FLOAT"}}}, {"name": "StatefulPartitionedCall/sequential/hub_keras_layer_v1v2/StatefulPartitionedCall/efficientnet-lite4/model/blocks_17/depthwise_conv2d/depthwise_weights", "op": "Const", "attr": {"value": {"tensor": {"dtype": "DT_FLOAT", "tensorShape": {"dim": [{"size": "5"}, {"size": "5"}, {"size": "960"}, {"size": "1"}]}}}, "dtype": {"type": "DT_FLOAT"}}}, {"name": "StatefulPartitionedCall/sequential/hub_keras_layer_v1v2/StatefulPartitionedCall/efficientnet-lite4/model/blocks_17/depthwise_conv2d/depthwise_bn_offset", "op": "Const", "attr": {"value": {"tensor": {"dtype": "DT_FLOAT", "tensorShape": {"dim": [{"size": "960"}]}}}, "dtype": {"type": "DT_FLOAT"}}}, {"name": "StatefulPartitionedCall/sequential/hub_keras_layer_v1v2/StatefulPartitionedCall/efficientnet-lite4/model/blocks_17/conv2d_1/Conv2D_weights", "op": "Const", "attr": {"dtype": {"type": "DT_FLOAT"}, "value": {"tensor": {"dtype": "DT_FLOAT", "tensorShape": {"dim": [{"size": "1"}, {"size": "1"}, {"size": "960"}, {"size": "160"}]}}}}}, {"name": "StatefulPartitionedCall/sequential/hub_keras_layer_v1v2/StatefulPartitionedCall/efficientnet-lite4/model/blocks_17/conv2d_1/Conv2D_bn_offset", "op": "Const", "attr": {"dtype": {"type": "DT_FLOAT"}, "value": {"tensor": {"dtype": "DT_FLOAT", "tensorShape": {"dim": [{"size": "160"}]}}}}}, {"name": "StatefulPartitionedCall/sequential/hub_keras_layer_v1v2/StatefulPartitionedCall/efficientnet-lite4/model/blocks_18/conv2d/Conv2D_weights", "op": "Const", "attr": {"dtype": {"type": "DT_FLOAT"}, "value": {"tensor": {"dtype": "DT_FLOAT", "tensorShape": {"dim": [{"size": "1"}, {"size": "1"}, {"size": "160"}, {"size": "960"}]}}}}}, {"name": "StatefulPartitionedCall/sequential/hub_keras_layer_v1v2/StatefulPartitionedCall/efficientnet-lite4/model/blocks_28/conv2d/Conv2D_weights", "op": "Const", "attr": {"value": {"tensor": {"dtype": "DT_FLOAT", "tensorShape": {"dim": [{"size": "1"}, {"size": "1"}, {"size": "272"}, {"size": "1632"}]}}}, "dtype": {"type": "DT_FLOAT"}}}, {"name": "StatefulPartitionedCall/sequential/hub_keras_layer_v1v2/StatefulPartitionedCall/efficientnet-lite4/model/blocks_18/conv2d/Conv2D_bn_offset", "op": "Const", "attr": {"value": {"tensor": {"dtype": "DT_FLOAT", "tensorShape": {"dim": [{"size": "960"}]}}}, "dtype": {"type": "DT_FLOAT"}}}, {"name": "StatefulPartitionedCall/sequential/hub_keras_layer_v1v2/StatefulPartitionedCall/efficientnet-lite4/model/blocks_18/depthwise_conv2d/depthwise_weights", "op": "Const", "attr": {"value": {"tensor": {"dtype": "DT_FLOAT", "tensorShape": {"dim": [{"size": "5"}, {"size": "5"}, {"size": "960"}, {"size": "1"}]}}}, "dtype": {"type": "DT_FLOAT"}}}, {"name": "StatefulPartitionedCall/sequential/hub_keras_layer_v1v2/StatefulPartitionedCall/efficientnet-lite4/model/blocks_18/depthwise_conv2d/depthwise_bn_offset", "op": "Const", "attr": {"value": {"tensor": {"dtype": "DT_FLOAT", "tensorShape": {"dim": [{"size": "960"}]}}}, "dtype": {"type": "DT_FLOAT"}}}, {"name": "StatefulPartitionedCall/sequential/hub_keras_layer_v1v2/StatefulPartitionedCall/efficientnet-lite4/model/blocks_18/conv2d_1/Conv2D_weights", "op": "Const", "attr": {"value": {"tensor": {"dtype": "DT_FLOAT", "tensorShape": {"dim": [{"size": "1"}, {"size": "1"}, {"size": "960"}, {"size": "160"}]}}}, "dtype": {"type": "DT_FLOAT"}}}, {"name": "StatefulPartitionedCall/sequential/hub_keras_layer_v1v2/StatefulPartitionedCall/efficientnet-lite4/model/blocks_28/conv2d/Conv2D_bn_offset", "op": "Const", "attr": {"dtype": {"type": "DT_FLOAT"}, "value": {"tensor": {"dtype": "DT_FLOAT", "tensorShape": {"dim": [{"size": "1632"}]}}}}}, {"name": "StatefulPartitionedCall/sequential/hub_keras_layer_v1v2/StatefulPartitionedCall/efficientnet-lite4/model/blocks_18/conv2d_1/Conv2D_bn_offset", "op": "Const", "attr": {"dtype": {"type": "DT_FLOAT"}, "value": {"tensor": {"dtype": "DT_FLOAT", "tensorShape": {"dim": [{"size": "160"}]}}}}}, {"name": "StatefulPartitionedCall/sequential/hub_keras_layer_v1v2/StatefulPartitionedCall/efficientnet-lite4/model/blocks_19/conv2d/Conv2D_weights", "op": "Const", "attr": {"value": {"tensor": {"dtype": "DT_FLOAT", "tensorShape": {"dim": [{"size": "1"}, {"size": "1"}, {"size": "160"}, {"size": "960"}]}}}, "dtype": {"type": "DT_FLOAT"}}}, {"name": "StatefulPartitionedCall/sequential/hub_keras_layer_v1v2/StatefulPartitionedCall/efficientnet-lite4/model/head/conv2d/Conv2D_bn_offset", "op": "Const", "attr": {"dtype": {"type": "DT_FLOAT"}, "value": {"tensor": {"dtype": "DT_FLOAT", "tensorShape": {"dim": [{"size": "1280"}]}}}}}, {"name": "StatefulPartitionedCall/sequential/hub_keras_layer_v1v2/StatefulPartitionedCall/efficientnet-lite4/model/blocks_19/conv2d/Conv2D_bn_offset", "op": "Const", "attr": {"value": {"tensor": {"dtype": "DT_FLOAT", "tensorShape": {"dim": [{"size": "960"}]}}}, "dtype": {"type": "DT_FLOAT"}}}, {"name": "StatefulPartitionedCall/sequential/hub_keras_layer_v1v2/StatefulPartitionedCall/efficientnet-lite4/model/blocks_19/depthwise_conv2d/depthwise_weights", "op": "Const", "attr": {"dtype": {"type": "DT_FLOAT"}, "value": {"tensor": {"dtype": "DT_FLOAT", "tensorShape": {"dim": [{"size": "5"}, {"size": "5"}, {"size": "960"}, {"size": "1"}]}}}}}, {"name": "StatefulPartitionedCall/sequential/hub_keras_layer_v1v2/StatefulPartitionedCall/efficientnet-lite4/model/blocks_19/depthwise_conv2d/depthwise_bn_offset", "op": "Const", "attr": {"value": {"tensor": {"dtype": "DT_FLOAT", "tensorShape": {"dim": [{"size": "960"}]}}}, "dtype": {"type": "DT_FLOAT"}}}, {"name": "StatefulPartitionedCall/sequential/hub_keras_layer_v1v2/StatefulPartitionedCall/efficientnet-lite4/model/blocks_19/conv2d_1/Conv2D_weights", "op": "Const", "attr": {"dtype": {"type": "DT_FLOAT"}, "value": {"tensor": {"dtype": "DT_FLOAT", "tensorShape": {"dim": [{"size": "1"}, {"size": "1"}, {"size": "960"}, {"size": "160"}]}}}}}, {"name": "StatefulPartitionedCall/sequential/hub_keras_layer_v1v2/StatefulPartitionedCall/efficientnet-lite4/model/blocks_28/depthwise_conv2d/depthwise_weights", "op": "Const", "attr": {"dtype": {"type": "DT_FLOAT"}, "value": {"tensor": {"dtype": "DT_FLOAT", "tensorShape": {"dim": [{"size": "5"}, {"size": "5"}, {"size": "1632"}, {"size": "1"}]}}}}}, {"name": "StatefulPartitionedCall/sequential/hub_keras_layer_v1v2/StatefulPartitionedCall/efficientnet-lite4/model/blocks_19/conv2d_1/Conv2D_bn_offset", "op": "Const", "attr": {"value": {"tensor": {"dtype": "DT_FLOAT", "tensorShape": {"dim": [{"size": "160"}]}}}, "dtype": {"type": "DT_FLOAT"}}}, {"name": "StatefulPartitionedCall/sequential/hub_keras_layer_v1v2/StatefulPartitionedCall/efficientnet-lite4/model/blocks_20/conv2d/Conv2D_weights", "op": "Const", "attr": {"value": {"tensor": {"dtype": "DT_FLOAT", "tensorShape": {"dim": [{"size": "1"}, {"size": "1"}, {"size": "160"}, {"size": "960"}]}}}, "dtype": {"type": "DT_FLOAT"}}}, {"name": "StatefulPartitionedCall/sequential/hub_keras_layer_v1v2/StatefulPartitionedCall/efficientnet-lite4/model/blocks_20/conv2d/Conv2D_bn_offset", "op": "Const", "attr": {"value": {"tensor": {"dtype": "DT_FLOAT", "tensorShape": {"dim": [{"size": "960"}]}}}, "dtype": {"type": "DT_FLOAT"}}}, {"name": "StatefulPartitionedCall/sequential/hub_keras_layer_v1v2/StatefulPartitionedCall/efficientnet-lite4/model/blocks_28/depthwise_conv2d/depthwise_bn_offset", "op": "Const", "attr": {"value": {"tensor": {"dtype": "DT_FLOAT", "tensorShape": {"dim": [{"size": "1632"}]}}}, "dtype": {"type": "DT_FLOAT"}}}, {"name": "StatefulPartitionedCall/sequential/hub_keras_layer_v1v2/StatefulPartitionedCall/efficientnet-lite4/model/blocks_20/depthwise_conv2d/depthwise_weights", "op": "Const", "attr": {"dtype": {"type": "DT_FLOAT"}, "value": {"tensor": {"dtype": "DT_FLOAT", "tensorShape": {"dim": [{"size": "5"}, {"size": "5"}, {"size": "960"}, {"size": "1"}]}}}}}, {"name": "StatefulPartitionedCall/sequential/hub_keras_layer_v1v2/StatefulPartitionedCall/efficientnet-lite4/model/blocks_20/depthwise_conv2d/depthwise_bn_offset", "op": "Const", "attr": {"dtype": {"type": "DT_FLOAT"}, "value": {"tensor": {"dtype": "DT_FLOAT", "tensorShape": {"dim": [{"size": "960"}]}}}}}, {"name": "StatefulPartitionedCall/sequential/hub_keras_layer_v1v2/StatefulPartitionedCall/efficientnet-lite4/model/blocks_20/conv2d_1/Conv2D_weights", "op": "Const", "attr": {"dtype": {"type": "DT_FLOAT"}, "value": {"tensor": {"dtype": "DT_FLOAT", "tensorShape": {"dim": [{"size": "1"}, {"size": "1"}, {"size": "960"}, {"size": "160"}]}}}}}, {"name": "StatefulPartitionedCall/sequential/hub_keras_layer_v1v2/StatefulPartitionedCall/efficientnet-lite4/model/blocks_20/conv2d_1/Conv2D_bn_offset", "op": "Const", "attr": {"dtype": {"type": "DT_FLOAT"}, "value": {"tensor": {"dtype": "DT_FLOAT", "tensorShape": {"dim": [{"size": "160"}]}}}}}, {"name": "StatefulPartitionedCall/sequential/hub_keras_layer_v1v2/StatefulPartitionedCall/efficientnet-lite4/model/blocks_21/conv2d/Conv2D_weights", "op": "Const", "attr": {"value": {"tensor": {"dtype": "DT_FLOAT", "tensorShape": {"dim": [{"size": "1"}, {"size": "1"}, {"size": "160"}, {"size": "960"}]}}}, "dtype": {"type": "DT_FLOAT"}}}, {"name": "StatefulPartitionedCall/sequential/hub_keras_layer_v1v2/StatefulPartitionedCall/efficientnet-lite4/model/blocks_21/conv2d/Conv2D_bn_offset", "op": "Const", "attr": {"dtype": {"type": "DT_FLOAT"}, "value": {"tensor": {"dtype": "DT_FLOAT", "tensorShape": {"dim": [{"size": "960"}]}}}}}, {"name": "StatefulPartitionedCall/sequential/hub_keras_layer_v1v2/StatefulPartitionedCall/efficientnet-lite4/model/blocks_28/conv2d_1/Conv2D_weights", "op": "Const", "attr": {"dtype": {"type": "DT_FLOAT"}, "value": {"tensor": {"dtype": "DT_FLOAT", "tensorShape": {"dim": [{"size": "1"}, {"size": "1"}, {"size": "1632"}, {"size": "272"}]}}}}}, {"name": "StatefulPartitionedCall/sequential/hub_keras_layer_v1v2/StatefulPartitionedCall/efficientnet-lite4/model/blocks_21/depthwise_conv2d/depthwise_weights", "op": "Const", "attr": {"value": {"tensor": {"dtype": "DT_FLOAT", "tensorShape": {"dim": [{"size": "5"}, {"size": "5"}, {"size": "960"}, {"size": "1"}]}}}, "dtype": {"type": "DT_FLOAT"}}}, {"name": "StatefulPartitionedCall/sequential/hub_keras_layer_v1v2/StatefulPartitionedCall/efficientnet-lite4/model/blocks_21/depthwise_conv2d/depthwise_bn_offset", "op": "Const", "attr": {"dtype": {"type": "DT_FLOAT"}, "value": {"tensor": {"dtype": "DT_FLOAT", "tensorShape": {"dim": [{"size": "960"}]}}}}}, {"name": "StatefulPartitionedCall/sequential/hub_keras_layer_v1v2/StatefulPartitionedCall/efficientnet-lite4/model/blocks_21/conv2d_1/Conv2D_weights", "op": "Const", "attr": {"value": {"tensor": {"dtype": "DT_FLOAT", "tensorShape": {"dim": [{"size": "1"}, {"size": "1"}, {"size": "960"}, {"size": "272"}]}}}, "dtype": {"type": "DT_FLOAT"}}}, {"name": "StatefulPartitionedCall/sequential/hub_keras_layer_v1v2/StatefulPartitionedCall/efficientnet-lite4/model/blocks_21/conv2d_1/Conv2D_bn_offset", "op": "Const", "attr": {"value": {"tensor": {"dtype": "DT_FLOAT", "tensorShape": {"dim": [{"size": "272"}]}}}, "dtype": {"type": "DT_FLOAT"}}}, {"name": "StatefulPartitionedCall/sequential/hub_keras_layer_v1v2/StatefulPartitionedCall/efficientnet-lite4/model/blocks_22/conv2d/Conv2D_weights", "op": "Const", "attr": {"value": {"tensor": {"dtype": "DT_FLOAT", "tensorShape": {"dim": [{"size": "1"}, {"size": "1"}, {"size": "272"}, {"size": "1632"}]}}}, "dtype": {"type": "DT_FLOAT"}}}, {"name": "StatefulPartitionedCall/sequential/hub_keras_layer_v1v2/StatefulPartitionedCall/efficientnet-lite4/model/blocks_28/conv2d_1/Conv2D_bn_offset", "op": "Const", "attr": {"dtype": {"type": "DT_FLOAT"}, "value": {"tensor": {"dtype": "DT_FLOAT", "tensorShape": {"dim": [{"size": "272"}]}}}}}, {"name": "StatefulPartitionedCall/sequential/hub_keras_layer_v1v2/StatefulPartitionedCall/efficientnet-lite4/model/blocks_22/conv2d/Conv2D_bn_offset", "op": "Const", "attr": {"value": {"tensor": {"dtype": "DT_FLOAT", "tensorShape": {"dim": [{"size": "1632"}]}}}, "dtype": {"type": "DT_FLOAT"}}}, {"name": "StatefulPartitionedCall/sequential/hub_keras_layer_v1v2/StatefulPartitionedCall/efficientnet-lite4/model/blocks_22/depthwise_conv2d/depthwise_weights", "op": "Const", "attr": {"dtype": {"type": "DT_FLOAT"}, "value": {"tensor": {"dtype": "DT_FLOAT", "tensorShape": {"dim": [{"size": "5"}, {"size": "5"}, {"size": "1632"}, {"size": "1"}]}}}}}, {"name": "StatefulPartitionedCall/sequential/hub_keras_layer_v1v2/StatefulPartitionedCall/efficientnet-lite4/model/blocks_22/depthwise_conv2d/depthwise_bn_offset", "op": "Const", "attr": {"value": {"tensor": {"dtype": "DT_FLOAT", "tensorShape": {"dim": [{"size": "1632"}]}}}, "dtype": {"type": "DT_FLOAT"}}}, {"name": "StatefulPartitionedCall/sequential/hub_keras_layer_v1v2/StatefulPartitionedCall/efficientnet-lite4/model/blocks_22/conv2d_1/Conv2D_weights", "op": "Const", "attr": {"dtype": {"type": "DT_FLOAT"}, "value": {"tensor": {"dtype": "DT_FLOAT", "tensorShape": {"dim": [{"size": "1"}, {"size": "1"}, {"size": "1632"}, {"size": "272"}]}}}}}, {"name": "StatefulPartitionedCall/sequential/hub_keras_layer_v1v2/StatefulPartitionedCall/efficientnet-lite4/model/blocks_22/conv2d_1/Conv2D_bn_offset", "op": "Const", "attr": {"value": {"tensor": {"dtype": "DT_FLOAT", "tensorShape": {"dim": [{"size": "272"}]}}}, "dtype": {"type": "DT_FLOAT"}}}, {"name": "StatefulPartitionedCall/sequential/hub_keras_layer_v1v2/StatefulPartitionedCall/efficientnet-lite4/model/blocks_23/conv2d/Conv2D_weights", "op": "Const", "attr": {"value": {"tensor": {"dtype": "DT_FLOAT", "tensorShape": {"dim": [{"size": "1"}, {"size": "1"}, {"size": "272"}, {"size": "1632"}]}}}, "dtype": {"type": "DT_FLOAT"}}}, {"name": "StatefulPartitionedCall/sequential/hub_keras_layer_v1v2/StatefulPartitionedCall/efficientnet-lite4/model/blocks_29/conv2d/Conv2D_weights", "op": "Const", "attr": {"dtype": {"type": "DT_FLOAT"}, "value": {"tensor": {"dtype": "DT_FLOAT", "tensorShape": {"dim": [{"size": "1"}, {"size": "1"}, {"size": "272"}, {"size": "1632"}]}}}}}, {"name": "StatefulPartitionedCall/sequential/hub_keras_layer_v1v2/StatefulPartitionedCall/efficientnet-lite4/model/blocks_23/conv2d/Conv2D_bn_offset", "op": "Const", "attr": {"value": {"tensor": {"dtype": "DT_FLOAT", "tensorShape": {"dim": [{"size": "1632"}]}}}, "dtype": {"type": "DT_FLOAT"}}}, {"name": "StatefulPartitionedCall/sequential/hub_keras_layer_v1v2/StatefulPartitionedCall/efficientnet-lite4/model/blocks_23/depthwise_conv2d/depthwise_weights", "op": "Const", "attr": {"value": {"tensor": {"dtype": "DT_FLOAT", "tensorShape": {"dim": [{"size": "5"}, {"size": "5"}, {"size": "1632"}, {"size": "1"}]}}}, "dtype": {"type": "DT_FLOAT"}}}, {"name": "StatefulPartitionedCall/sequential/hub_keras_layer_v1v2/StatefulPartitionedCall/efficientnet-lite4/model/blocks_23/depthwise_conv2d/depthwise_bn_offset", "op": "Const", "attr": {"value": {"tensor": {"dtype": "DT_FLOAT", "tensorShape": {"dim": [{"size": "1632"}]}}}, "dtype": {"type": "DT_FLOAT"}}}, {"name": "StatefulPartitionedCall/sequential/hub_keras_layer_v1v2/StatefulPartitionedCall/efficientnet-lite4/model/blocks_23/conv2d_1/Conv2D_weights", "op": "Const", "attr": {"dtype": {"type": "DT_FLOAT"}, "value": {"tensor": {"dtype": "DT_FLOAT", "tensorShape": {"dim": [{"size": "1"}, {"size": "1"}, {"size": "1632"}, {"size": "272"}]}}}}}, {"name": "StatefulPartitionedCall/sequential/hub_keras_layer_v1v2/StatefulPartitionedCall/efficientnet-lite4/model/blocks_29/conv2d/Conv2D_bn_offset", "op": "Const", "attr": {"dtype": {"type": "DT_FLOAT"}, "value": {"tensor": {"dtype": "DT_FLOAT", "tensorShape": {"dim": [{"size": "1632"}]}}}}}, {"name": "StatefulPartitionedCall/sequential/hub_keras_layer_v1v2/StatefulPartitionedCall/efficientnet-lite4/model/blocks_23/conv2d_1/Conv2D_bn_offset", "op": "Const", "attr": {"value": {"tensor": {"dtype": "DT_FLOAT", "tensorShape": {"dim": [{"size": "272"}]}}}, "dtype": {"type": "DT_FLOAT"}}}, {"name": "StatefulPartitionedCall/sequential/hub_keras_layer_v1v2/StatefulPartitionedCall/efficientnet-lite4/model/blocks_24/conv2d/Conv2D_weights", "op": "Const", "attr": {"value": {"tensor": {"dtype": "DT_FLOAT", "tensorShape": {"dim": [{"size": "1"}, {"size": "1"}, {"size": "272"}, {"size": "1632"}]}}}, "dtype": {"type": "DT_FLOAT"}}}, {"name": "StatefulPartitionedCall/sequential/hub_keras_layer_v1v2/StatefulPartitionedCall/efficientnet-lite4/model/blocks_24/conv2d/Conv2D_bn_offset", "op": "Const", "attr": {"dtype": {"type": "DT_FLOAT"}, "value": {"tensor": {"dtype": "DT_FLOAT", "tensorShape": {"dim": [{"size": "1632"}]}}}}}, {"name": "StatefulPartitionedCall/sequential/hub_keras_layer_v1v2/StatefulPartitionedCall/efficientnet-lite4/model/blocks_24/depthwise_conv2d/depthwise_weights", "op": "Const", "attr": {"value": {"tensor": {"dtype": "DT_FLOAT", "tensorShape": {"dim": [{"size": "5"}, {"size": "5"}, {"size": "1632"}, {"size": "1"}]}}}, "dtype": {"type": "DT_FLOAT"}}}, {"name": "StatefulPartitionedCall/sequential/hub_keras_layer_v1v2/StatefulPartitionedCall/Const", "op": "Const", "input": ["^input_1"], "attr": {"value": {"tensor": {"dtype": "DT_FLOAT", "tensorShape": {}}}, "dtype": {"type": "DT_FLOAT"}}}, {"name": "StatefulPartitionedCall/sequential/hub_keras_layer_v1v2/StatefulPartitionedCall/Const_1", "op": "Const", "input": ["^input_1"], "attr": {"value": {"tensor": {"dtype": "DT_FLOAT", "tensorShape": {}}}, "dtype": {"type": "DT_FLOAT"}}}, {"name": "StatefulPartitionedCall/sequential/hub_keras_layer_v1v2/StatefulPartitionedCall/efficientnet-lite4/model/head/global_average_pooling2d/Mean/reduction_indices", "op": "Const", "input": ["^input_1"], "attr": {"value": {"tensor": {"dtype": "DT_INT32", "tensorShape": {"dim": [{"size": "2"}]}}}, "dtype": {"type": "DT_INT32"}}}, {"name": "StatefulPartitionedCall/sequential/hub_keras_layer_v1v2/StatefulPartitionedCall/mul", "op": "Mul", "input": ["input_1", "StatefulPartitionedCall/sequential/hub_keras_layer_v1v2/StatefulPartitionedCall/Const"], "attr": {"T": {"type": "DT_FLOAT"}}}, {"name": "StatefulPartitionedCall/sequential/hub_keras_layer_v1v2/StatefulPartitionedCall/add", "op": "AddV2", "input": ["StatefulPartitionedCall/sequential/hub_keras_layer_v1v2/StatefulPartitionedCall/mul", "StatefulPartitionedCall/sequential/hub_keras_layer_v1v2/StatefulPartitionedCall/Const_1"], "attr": {"T": {"type": "DT_FLOAT"}}}, {"name": "StatefulPartitionedCall/sequential/hub_keras_layer_v1v2/StatefulPartitionedCall/efficientnet-lite4/model/stem/Relu6", "op": "_FusedConv2D", "input": ["StatefulPartitionedCall/sequential/hub_keras_layer_v1v2/StatefulPartitionedCall/add", "StatefulPartitionedCall/sequential/hub_keras_layer_v1v2/StatefulPartitionedCall/efficientnet-lite4/model/stem/conv2d/Conv2D_weights", "StatefulPartitionedCall/sequential/hub_keras_layer_v1v2/StatefulPartitionedCall/efficientnet-lite4/model/stem/conv2d/Conv2D_bn_offset"], "device": "/device:CPU:0", "attr": {"padding": {"s": "U0FNRQ=="}, "fused_ops": {"list": {"s": ["Qmlhc0FkZA==", "UmVsdTY="]}}, "dilations": {"list": {"i": ["1", "1", "1", "1"]}}, "T": {"type": "DT_FLOAT"}, "epsilon": {"f": 0.0}, "explicit_paddings": {"list": {}}, "use_cudnn_on_gpu": {"b": true}, "strides": {"list": {"i": ["1", "2", "2", "1"]}}, "num_args": {"i": "1"}, "data_format": {"s": "TkhXQw=="}}}, {"name": "StatefulPartitionedCall/sequential/hub_keras_layer_v1v2/StatefulPartitionedCall/efficientnet-lite4/model/blocks_0/depthwise_conv2d/depthwise", "op": "FusedDepthwiseConv2dNative", "input": ["StatefulPartitionedCall/sequential/hub_keras_layer_v1v2/StatefulPartitionedCall/efficientnet-lite4/model/stem/Relu6", "StatefulPartitionedCall/sequential/hub_keras_layer_v1v2/StatefulPartitionedCall/efficientnet-lite4/model/blocks_0/depthwise_conv2d/depthwise_weights", "StatefulPartitionedCall/sequential/hub_keras_layer_v1v2/StatefulPartitionedCall/efficientnet-lite4/model/blocks_0/depthwise_conv2d/depthwise_bn_offset"], "attr": {"strides": {"list": {"i": ["1", "1", "1", "1"]}}, "data_format": {"s": "TkhXQw=="}, "padding": {"s": "U0FNRQ=="}, "T": {"type": "DT_FLOAT"}, "fused_ops": {"list": {"s": ["Qmlhc0FkZA==", "UmVsdTY="]}}, "explicit_paddings": {"list": {}}, "dilations": {"list": {"i": ["1", "1", "1", "1"]}}, "num_args": {"i": "1"}}}, {"name": "StatefulPartitionedCall/sequential/hub_keras_layer_v1v2/StatefulPartitionedCall/efficientnet-lite4/model/blocks_0/tpu_batch_normalization_1/FusedBatchNormV3", "op": "_FusedConv2D", "input": ["StatefulPartitionedCall/sequential/hub_keras_layer_v1v2/StatefulPartitionedCall/efficientnet-lite4/model/blocks_0/depthwise_conv2d/depthwise", "StatefulPartitionedCall/sequential/hub_keras_layer_v1v2/StatefulPartitionedCall/efficientnet-lite4/model/blocks_0/conv2d/Conv2D_weights", "StatefulPartitionedCall/sequential/hub_keras_layer_v1v2/StatefulPartitionedCall/efficientnet-lite4/model/blocks_0/conv2d/Conv2D_bn_offset"], "device": "/device:CPU:0", "attr": {"data_format": {"s": "TkhXQw=="}, "epsilon": {"f": 0.0}, "use_cudnn_on_gpu": {"b": true}, "dilations": {"list": {"i": ["1", "1", "1", "1"]}}, "num_args": {"i": "1"}, "T": {"type": "DT_FLOAT"}, "strides": {"list": {"i": ["1", "1", "1", "1"]}}, "padding": {"s": "U0FNRQ=="}, "explicit_paddings": {"list": {}}, "fused_ops": {"list": {"s": ["Qmlhc0FkZA=="]}}}}, {"name": "StatefulPartitionedCall/sequential/hub_keras_layer_v1v2/StatefulPartitionedCall/efficientnet-lite4/model/blocks_1/Relu6", "op": "_FusedConv2D", "input": ["StatefulPartitionedCall/sequential/hub_keras_layer_v1v2/StatefulPartitionedCall/efficientnet-lite4/model/blocks_0/tpu_batch_normalization_1/FusedBatchNormV3", "StatefulPartitionedCall/sequential/hub_keras_layer_v1v2/StatefulPartitionedCall/efficientnet-lite4/model/blocks_1/conv2d/Conv2D_weights", "StatefulPartitionedCall/sequential/hub_keras_layer_v1v2/StatefulPartitionedCall/efficientnet-lite4/model/blocks_1/conv2d/Conv2D_bn_offset"], "device": "/device:CPU:0", "attr": {"strides": {"list": {"i": ["1", "1", "1", "1"]}}, "fused_ops": {"list": {"s": ["Qmlhc0FkZA==", "UmVsdTY="]}}, "epsilon": {"f": 0.0}, "explicit_paddings": {"list": {}}, "dilations": {"list": {"i": ["1", "1", "1", "1"]}}, "T": {"type": "DT_FLOAT"}, "use_cudnn_on_gpu": {"b": true}, "padding": {"s": "U0FNRQ=="}, "data_format": {"s": "TkhXQw=="}, "num_args": {"i": "1"}}}, {"name": "StatefulPartitionedCall/sequential/hub_keras_layer_v1v2/StatefulPartitionedCall/efficientnet-lite4/model/blocks_1/depthwise_conv2d/depthwise", "op": "FusedDepthwiseConv2dNative", "input": ["StatefulPartitionedCall/sequential/hub_keras_layer_v1v2/StatefulPartitionedCall/efficientnet-lite4/model/blocks_1/Relu6", "StatefulPartitionedCall/sequential/hub_keras_layer_v1v2/StatefulPartitionedCall/efficientnet-lite4/model/blocks_1/depthwise_conv2d/depthwise_weights", "StatefulPartitionedCall/sequential/hub_keras_layer_v1v2/StatefulPartitionedCall/efficientnet-lite4/model/blocks_1/depthwise_conv2d/depthwise_bn_offset"], "attr": {"data_format": {"s": "TkhXQw=="}, "num_args": {"i": "1"}, "explicit_paddings": {"list": {}}, "fused_ops": {"list": {"s": ["Qmlhc0FkZA==", "UmVsdTY="]}}, "dilations": {"list": {"i": ["1", "1", "1", "1"]}}, "strides": {"list": {"i": ["1", "2", "2", "1"]}}, "T": {"type": "DT_FLOAT"}, "padding": {"s": "U0FNRQ=="}}}, {"name": "StatefulPartitionedCall/sequential/hub_keras_layer_v1v2/StatefulPartitionedCall/efficientnet-lite4/model/blocks_1/tpu_batch_normalization_2/FusedBatchNormV3", "op": "_FusedConv2D", "input": ["StatefulPartitionedCall/sequential/hub_keras_layer_v1v2/StatefulPartitionedCall/efficientnet-lite4/model/blocks_1/depthwise_conv2d/depthwise", "StatefulPartitionedCall/sequential/hub_keras_layer_v1v2/StatefulPartitionedCall/efficientnet-lite4/model/blocks_1/conv2d_1/Conv2D_weights", "StatefulPartitionedCall/sequential/hub_keras_layer_v1v2/StatefulPartitionedCall/efficientnet-lite4/model/blocks_1/conv2d_1/Conv2D_bn_offset"], "device": "/device:CPU:0", "attr": {"strides": {"list": {"i": ["1", "1", "1", "1"]}}, "fused_ops": {"list": {"s": ["Qmlhc0FkZA=="]}}, "num_args": {"i": "1"}, "data_format": {"s": "TkhXQw=="}, "explicit_paddings": {"list": {}}, "use_cudnn_on_gpu": {"b": true}, "padding": {"s": "U0FNRQ=="}, "dilations": {"list": {"i": ["1", "1", "1", "1"]}}, "T": {"type": "DT_FLOAT"}, "epsilon": {"f": 0.0}}}, {"name": "StatefulPartitionedCall/sequential/hub_keras_layer_v1v2/StatefulPartitionedCall/efficientnet-lite4/model/blocks_2/Relu6", "op": "_FusedConv2D", "input": ["StatefulPartitionedCall/sequential/hub_keras_layer_v1v2/StatefulPartitionedCall/efficientnet-lite4/model/blocks_1/tpu_batch_normalization_2/FusedBatchNormV3", "StatefulPartitionedCall/sequential/hub_keras_layer_v1v2/StatefulPartitionedCall/efficientnet-lite4/model/blocks_2/conv2d/Conv2D_weights", "StatefulPartitionedCall/sequential/hub_keras_layer_v1v2/StatefulPartitionedCall/efficientnet-lite4/model/blocks_2/conv2d/Conv2D_bn_offset"], "device": "/device:CPU:0", "attr": {"T": {"type": "DT_FLOAT"}, "dilations": {"list": {"i": ["1", "1", "1", "1"]}}, "data_format": {"s": "TkhXQw=="}, "num_args": {"i": "1"}, "padding": {"s": "U0FNRQ=="}, "strides": {"list": {"i": ["1", "1", "1", "1"]}}, "explicit_paddings": {"list": {}}, "fused_ops": {"list": {"s": ["Qmlhc0FkZA==", "UmVsdTY="]}}, "epsilon": {"f": 0.0}, "use_cudnn_on_gpu": {"b": true}}}, {"name": "StatefulPartitionedCall/sequential/hub_keras_layer_v1v2/StatefulPartitionedCall/efficientnet-lite4/model/blocks_2/depthwise_conv2d/depthwise", "op": "FusedDepthwiseConv2dNative", "input": ["StatefulPartitionedCall/sequential/hub_keras_layer_v1v2/StatefulPartitionedCall/efficientnet-lite4/model/blocks_2/Relu6", "StatefulPartitionedCall/sequential/hub_keras_layer_v1v2/StatefulPartitionedCall/efficientnet-lite4/model/blocks_2/depthwise_conv2d/depthwise_weights", "StatefulPartitionedCall/sequential/hub_keras_layer_v1v2/StatefulPartitionedCall/efficientnet-lite4/model/blocks_2/depthwise_conv2d/depthwise_bn_offset"], "attr": {"fused_ops": {"list": {"s": ["Qmlhc0FkZA==", "UmVsdTY="]}}, "strides": {"list": {"i": ["1", "1", "1", "1"]}}, "padding": {"s": "U0FNRQ=="}, "T": {"type": "DT_FLOAT"}, "explicit_paddings": {"list": {}}, "dilations": {"list": {"i": ["1", "1", "1", "1"]}}, "data_format": {"s": "TkhXQw=="}, "num_args": {"i": "1"}}}, {"name": "StatefulPartitionedCall/sequential/hub_keras_layer_v1v2/StatefulPartitionedCall/efficientnet-lite4/model/blocks_2/tpu_batch_normalization_2/FusedBatchNormV3", "op": "_FusedConv2D", "input": ["StatefulPartitionedCall/sequential/hub_keras_layer_v1v2/StatefulPartitionedCall/efficientnet-lite4/model/blocks_2/depthwise_conv2d/depthwise", "StatefulPartitionedCall/sequential/hub_keras_layer_v1v2/StatefulPartitionedCall/efficientnet-lite4/model/blocks_2/conv2d_1/Conv2D_weights", "StatefulPartitionedCall/sequential/hub_keras_layer_v1v2/StatefulPartitionedCall/efficientnet-lite4/model/blocks_2/conv2d_1/Conv2D_bn_offset"], "device": "/device:CPU:0", "attr": {"T": {"type": "DT_FLOAT"}, "use_cudnn_on_gpu": {"b": true}, "strides": {"list": {"i": ["1", "1", "1", "1"]}}, "explicit_paddings": {"list": {}}, "dilations": {"list": {"i": ["1", "1", "1", "1"]}}, "fused_ops": {"list": {"s": ["Qmlhc0FkZA=="]}}, "epsilon": {"f": 0.0}, "data_format": {"s": "TkhXQw=="}, "padding": {"s": "U0FNRQ=="}, "num_args": {"i": "1"}}}, {"name": "StatefulPartitionedCall/sequential/hub_keras_layer_v1v2/StatefulPartitionedCall/efficientnet-lite4/model/blocks_2/Add", "op": "Add", "input": ["StatefulPartitionedCall/sequential/hub_keras_layer_v1v2/StatefulPartitionedCall/efficientnet-lite4/model/blocks_2/tpu_batch_normalization_2/FusedBatchNormV3", "StatefulPartitionedCall/sequential/hub_keras_layer_v1v2/StatefulPartitionedCall/efficientnet-lite4/model/blocks_1/tpu_batch_normalization_2/FusedBatchNormV3"], "attr": {"T": {"type": "DT_FLOAT"}}}, {"name": "StatefulPartitionedCall/sequential/hub_keras_layer_v1v2/StatefulPartitionedCall/efficientnet-lite4/model/blocks_3/Relu6", "op": "_FusedConv2D", "input": ["StatefulPartitionedCall/sequential/hub_keras_layer_v1v2/StatefulPartitionedCall/efficientnet-lite4/model/blocks_2/Add", "StatefulPartitionedCall/sequential/hub_keras_layer_v1v2/StatefulPartitionedCall/efficientnet-lite4/model/blocks_3/conv2d/Conv2D_weights", "StatefulPartitionedCall/sequential/hub_keras_layer_v1v2/StatefulPartitionedCall/efficientnet-lite4/model/blocks_3/conv2d/Conv2D_bn_offset"], "device": "/device:CPU:0", "attr": {"padding": {"s": "U0FNRQ=="}, "dilations": {"list": {"i": ["1", "1", "1", "1"]}}, "strides": {"list": {"i": ["1", "1", "1", "1"]}}, "num_args": {"i": "1"}, "fused_ops": {"list": {"s": ["Qmlhc0FkZA==", "UmVsdTY="]}}, "T": {"type": "DT_FLOAT"}, "use_cudnn_on_gpu": {"b": true}, "epsilon": {"f": 0.0}, "explicit_paddings": {"list": {}}, "data_format": {"s": "TkhXQw=="}}}, {"name": "StatefulPartitionedCall/sequential/hub_keras_layer_v1v2/StatefulPartitionedCall/efficientnet-lite4/model/blocks_3/depthwise_conv2d/depthwise", "op": "FusedDepthwiseConv2dNative", "input": ["StatefulPartitionedCall/sequential/hub_keras_layer_v1v2/StatefulPartitionedCall/efficientnet-lite4/model/blocks_3/Relu6", "StatefulPartitionedCall/sequential/hub_keras_layer_v1v2/StatefulPartitionedCall/efficientnet-lite4/model/blocks_3/depthwise_conv2d/depthwise_weights", "StatefulPartitionedCall/sequential/hub_keras_layer_v1v2/StatefulPartitionedCall/efficientnet-lite4/model/blocks_3/depthwise_conv2d/depthwise_bn_offset"], "attr": {"data_format": {"s": "TkhXQw=="}, "fused_ops": {"list": {"s": ["Qmlhc0FkZA==", "UmVsdTY="]}}, "num_args": {"i": "1"}, "dilations": {"list": {"i": ["1", "1", "1", "1"]}}, "explicit_paddings": {"list": {}}, "padding": {"s": "U0FNRQ=="}, "T": {"type": "DT_FLOAT"}, "strides": {"list": {"i": ["1", "1", "1", "1"]}}}}, {"name": "StatefulPartitionedCall/sequential/hub_keras_layer_v1v2/StatefulPartitionedCall/efficientnet-lite4/model/blocks_3/tpu_batch_normalization_2/FusedBatchNormV3", "op": "_FusedConv2D", "input": ["StatefulPartitionedCall/sequential/hub_keras_layer_v1v2/StatefulPartitionedCall/efficientnet-lite4/model/blocks_3/depthwise_conv2d/depthwise", "StatefulPartitionedCall/sequential/hub_keras_layer_v1v2/StatefulPartitionedCall/efficientnet-lite4/model/blocks_3/conv2d_1/Conv2D_weights", "StatefulPartitionedCall/sequential/hub_keras_layer_v1v2/StatefulPartitionedCall/efficientnet-lite4/model/blocks_3/conv2d_1/Conv2D_bn_offset"], "device": "/device:CPU:0", "attr": {"T": {"type": "DT_FLOAT"}, "dilations": {"list": {"i": ["1", "1", "1", "1"]}}, "use_cudnn_on_gpu": {"b": true}, "explicit_paddings": {"list": {}}, "padding": {"s": "U0FNRQ=="}, "epsilon": {"f": 0.0}, "strides": {"list": {"i": ["1", "1", "1", "1"]}}, "num_args": {"i": "1"}, "data_format": {"s": "TkhXQw=="}, "fused_ops": {"list": {"s": ["Qmlhc0FkZA=="]}}}}, {"name": "StatefulPartitionedCall/sequential/hub_keras_layer_v1v2/StatefulPartitionedCall/efficientnet-lite4/model/blocks_3/Add", "op": "Add", "input": ["StatefulPartitionedCall/sequential/hub_keras_layer_v1v2/StatefulPartitionedCall/efficientnet-lite4/model/blocks_3/tpu_batch_normalization_2/FusedBatchNormV3", "StatefulPartitionedCall/sequential/hub_keras_layer_v1v2/StatefulPartitionedCall/efficientnet-lite4/model/blocks_2/Add"], "attr": {"T": {"type": "DT_FLOAT"}}}, {"name": "StatefulPartitionedCall/sequential/hub_keras_layer_v1v2/StatefulPartitionedCall/efficientnet-lite4/model/blocks_4/Relu6", "op": "_FusedConv2D", "input": ["StatefulPartitionedCall/sequential/hub_keras_layer_v1v2/StatefulPartitionedCall/efficientnet-lite4/model/blocks_3/Add", "StatefulPartitionedCall/sequential/hub_keras_layer_v1v2/StatefulPartitionedCall/efficientnet-lite4/model/blocks_4/conv2d/Conv2D_weights", "StatefulPartitionedCall/sequential/hub_keras_layer_v1v2/StatefulPartitionedCall/efficientnet-lite4/model/blocks_4/conv2d/Conv2D_bn_offset"], "device": "/device:CPU:0", "attr": {"fused_ops": {"list": {"s": ["Qmlhc0FkZA==", "UmVsdTY="]}}, "epsilon": {"f": 0.0}, "padding": {"s": "U0FNRQ=="}, "use_cudnn_on_gpu": {"b": true}, "explicit_paddings": {"list": {}}, "T": {"type": "DT_FLOAT"}, "num_args": {"i": "1"}, "data_format": {"s": "TkhXQw=="}, "dilations": {"list": {"i": ["1", "1", "1", "1"]}}, "strides": {"list": {"i": ["1", "1", "1", "1"]}}}}, {"name": "StatefulPartitionedCall/sequential/hub_keras_layer_v1v2/StatefulPartitionedCall/efficientnet-lite4/model/blocks_4/depthwise_conv2d/depthwise", "op": "FusedDepthwiseConv2dNative", "input": ["StatefulPartitionedCall/sequential/hub_keras_layer_v1v2/StatefulPartitionedCall/efficientnet-lite4/model/blocks_4/Relu6", "StatefulPartitionedCall/sequential/hub_keras_layer_v1v2/StatefulPartitionedCall/efficientnet-lite4/model/blocks_4/depthwise_conv2d/depthwise_weights", "StatefulPartitionedCall/sequential/hub_keras_layer_v1v2/StatefulPartitionedCall/efficientnet-lite4/model/blocks_4/depthwise_conv2d/depthwise_bn_offset"], "attr": {"num_args": {"i": "1"}, "data_format": {"s": "TkhXQw=="}, "explicit_paddings": {"list": {}}, "strides": {"list": {"i": ["1", "1", "1", "1"]}}, "dilations": {"list": {"i": ["1", "1", "1", "1"]}}, "fused_ops": {"list": {"s": ["Qmlhc0FkZA==", "UmVsdTY="]}}, "padding": {"s": "U0FNRQ=="}, "T": {"type": "DT_FLOAT"}}}, {"name": "StatefulPartitionedCall/sequential/hub_keras_layer_v1v2/StatefulPartitionedCall/efficientnet-lite4/model/blocks_4/tpu_batch_normalization_2/FusedBatchNormV3", "op": "_FusedConv2D", "input": ["StatefulPartitionedCall/sequential/hub_keras_layer_v1v2/StatefulPartitionedCall/efficientnet-lite4/model/blocks_4/depthwise_conv2d/depthwise", "StatefulPartitionedCall/sequential/hub_keras_layer_v1v2/StatefulPartitionedCall/efficientnet-lite4/model/blocks_4/conv2d_1/Conv2D_weights", "StatefulPartitionedCall/sequential/hub_keras_layer_v1v2/StatefulPartitionedCall/efficientnet-lite4/model/blocks_4/conv2d_1/Conv2D_bn_offset"], "device": "/device:CPU:0", "attr": {"padding": {"s": "U0FNRQ=="}, "dilations": {"list": {"i": ["1", "1", "1", "1"]}}, "strides": {"list": {"i": ["1", "1", "1", "1"]}}, "data_format": {"s": "TkhXQw=="}, "num_args": {"i": "1"}, "epsilon": {"f": 0.0}, "fused_ops": {"list": {"s": ["Qmlhc0FkZA=="]}}, "explicit_paddings": {"list": {}}, "use_cudnn_on_gpu": {"b": true}, "T": {"type": "DT_FLOAT"}}}, {"name": "StatefulPartitionedCall/sequential/hub_keras_layer_v1v2/StatefulPartitionedCall/efficientnet-lite4/model/blocks_4/Add", "op": "Add", "input": ["StatefulPartitionedCall/sequential/hub_keras_layer_v1v2/StatefulPartitionedCall/efficientnet-lite4/model/blocks_4/tpu_batch_normalization_2/FusedBatchNormV3", "StatefulPartitionedCall/sequential/hub_keras_layer_v1v2/StatefulPartitionedCall/efficientnet-lite4/model/blocks_3/Add"], "attr": {"T": {"type": "DT_FLOAT"}}}, {"name": "StatefulPartitionedCall/sequential/hub_keras_layer_v1v2/StatefulPartitionedCall/efficientnet-lite4/model/blocks_5/Relu6", "op": "_FusedConv2D", "input": ["StatefulPartitionedCall/sequential/hub_keras_layer_v1v2/StatefulPartitionedCall/efficientnet-lite4/model/blocks_4/Add", "StatefulPartitionedCall/sequential/hub_keras_layer_v1v2/StatefulPartitionedCall/efficientnet-lite4/model/blocks_5/conv2d/Conv2D_weights", "StatefulPartitionedCall/sequential/hub_keras_layer_v1v2/StatefulPartitionedCall/efficientnet-lite4/model/blocks_5/conv2d/Conv2D_bn_offset"], "device": "/device:CPU:0", "attr": {"T": {"type": "DT_FLOAT"}, "fused_ops": {"list": {"s": ["Qmlhc0FkZA==", "UmVsdTY="]}}, "padding": {"s": "U0FNRQ=="}, "num_args": {"i": "1"}, "strides": {"list": {"i": ["1", "1", "1", "1"]}}, "data_format": {"s": "TkhXQw=="}, "use_cudnn_on_gpu": {"b": true}, "epsilon": {"f": 0.0}, "dilations": {"list": {"i": ["1", "1", "1", "1"]}}, "explicit_paddings": {"list": {}}}}, {"name": "StatefulPartitionedCall/sequential/hub_keras_layer_v1v2/StatefulPartitionedCall/efficientnet-lite4/model/blocks_5/depthwise_conv2d/depthwise", "op": "FusedDepthwiseConv2dNative", "input": ["StatefulPartitionedCall/sequential/hub_keras_layer_v1v2/StatefulPartitionedCall/efficientnet-lite4/model/blocks_5/Relu6", "StatefulPartitionedCall/sequential/hub_keras_layer_v1v2/StatefulPartitionedCall/efficientnet-lite4/model/blocks_5/depthwise_conv2d/depthwise_weights", "StatefulPartitionedCall/sequential/hub_keras_layer_v1v2/StatefulPartitionedCall/efficientnet-lite4/model/blocks_5/depthwise_conv2d/depthwise_bn_offset"], "attr": {"data_format": {"s": "TkhXQw=="}, "dilations": {"list": {"i": ["1", "1", "1", "1"]}}, "T": {"type": "DT_FLOAT"}, "fused_ops": {"list": {"s": ["Qmlhc0FkZA==", "UmVsdTY="]}}, "num_args": {"i": "1"}, "padding": {"s": "U0FNRQ=="}, "explicit_paddings": {"list": {}}, "strides": {"list": {"i": ["1", "2", "2", "1"]}}}}, {"name": "StatefulPartitionedCall/sequential/hub_keras_layer_v1v2/StatefulPartitionedCall/efficientnet-lite4/model/blocks_5/tpu_batch_normalization_2/FusedBatchNormV3", "op": "_FusedConv2D", "input": ["StatefulPartitionedCall/sequential/hub_keras_layer_v1v2/StatefulPartitionedCall/efficientnet-lite4/model/blocks_5/depthwise_conv2d/depthwise", "StatefulPartitionedCall/sequential/hub_keras_layer_v1v2/StatefulPartitionedCall/efficientnet-lite4/model/blocks_5/conv2d_1/Conv2D_weights", "StatefulPartitionedCall/sequential/hub_keras_layer_v1v2/StatefulPartitionedCall/efficientnet-lite4/model/blocks_5/conv2d_1/Conv2D_bn_offset"], "device": "/device:CPU:0", "attr": {"data_format": {"s": "TkhXQw=="}, "padding": {"s": "U0FNRQ=="}, "explicit_paddings": {"list": {}}, "epsilon": {"f": 0.0}, "num_args": {"i": "1"}, "dilations": {"list": {"i": ["1", "1", "1", "1"]}}, "use_cudnn_on_gpu": {"b": true}, "T": {"type": "DT_FLOAT"}, "strides": {"list": {"i": ["1", "1", "1", "1"]}}, "fused_ops": {"list": {"s": ["Qmlhc0FkZA=="]}}}}, {"name": "StatefulPartitionedCall/sequential/hub_keras_layer_v1v2/StatefulPartitionedCall/efficientnet-lite4/model/blocks_6/Relu6", "op": "_FusedConv2D", "input": ["StatefulPartitionedCall/sequential/hub_keras_layer_v1v2/StatefulPartitionedCall/efficientnet-lite4/model/blocks_5/tpu_batch_normalization_2/FusedBatchNormV3", "StatefulPartitionedCall/sequential/hub_keras_layer_v1v2/StatefulPartitionedCall/efficientnet-lite4/model/blocks_6/conv2d/Conv2D_weights", "StatefulPartitionedCall/sequential/hub_keras_layer_v1v2/StatefulPartitionedCall/efficientnet-lite4/model/blocks_6/conv2d/Conv2D_bn_offset"], "device": "/device:CPU:0", "attr": {"fused_ops": {"list": {"s": ["Qmlhc0FkZA==", "UmVsdTY="]}}, "explicit_paddings": {"list": {}}, "data_format": {"s": "TkhXQw=="}, "padding": {"s": "U0FNRQ=="}, "strides": {"list": {"i": ["1", "1", "1", "1"]}}, "epsilon": {"f": 0.0}, "T": {"type": "DT_FLOAT"}, "num_args": {"i": "1"}, "dilations": {"list": {"i": ["1", "1", "1", "1"]}}, "use_cudnn_on_gpu": {"b": true}}}, {"name": "StatefulPartitionedCall/sequential/hub_keras_layer_v1v2/StatefulPartitionedCall/efficientnet-lite4/model/blocks_6/depthwise_conv2d/depthwise", "op": "FusedDepthwiseConv2dNative", "input": ["StatefulPartitionedCall/sequential/hub_keras_layer_v1v2/StatefulPartitionedCall/efficientnet-lite4/model/blocks_6/Relu6", "StatefulPartitionedCall/sequential/hub_keras_layer_v1v2/StatefulPartitionedCall/efficientnet-lite4/model/blocks_6/depthwise_conv2d/depthwise_weights", "StatefulPartitionedCall/sequential/hub_keras_layer_v1v2/StatefulPartitionedCall/efficientnet-lite4/model/blocks_6/depthwise_conv2d/depthwise_bn_offset"], "attr": {"fused_ops": {"list": {"s": ["Qmlhc0FkZA==", "UmVsdTY="]}}, "dilations": {"list": {"i": ["1", "1", "1", "1"]}}, "data_format": {"s": "TkhXQw=="}, "explicit_paddings": {"list": {}}, "num_args": {"i": "1"}, "strides": {"list": {"i": ["1", "1", "1", "1"]}}, "T": {"type": "DT_FLOAT"}, "padding": {"s": "U0FNRQ=="}}}, {"name": "StatefulPartitionedCall/sequential/hub_keras_layer_v1v2/StatefulPartitionedCall/efficientnet-lite4/model/blocks_6/tpu_batch_normalization_2/FusedBatchNormV3", "op": "_FusedConv2D", "input": ["StatefulPartitionedCall/sequential/hub_keras_layer_v1v2/StatefulPartitionedCall/efficientnet-lite4/model/blocks_6/depthwise_conv2d/depthwise", "StatefulPartitionedCall/sequential/hub_keras_layer_v1v2/StatefulPartitionedCall/efficientnet-lite4/model/blocks_6/conv2d_1/Conv2D_weights", "StatefulPartitionedCall/sequential/hub_keras_layer_v1v2/StatefulPartitionedCall/efficientnet-lite4/model/blocks_6/conv2d_1/Conv2D_bn_offset"], "device": "/device:CPU:0", "attr": {"fused_ops": {"list": {"s": ["Qmlhc0FkZA=="]}}, "dilations": {"list": {"i": ["1", "1", "1", "1"]}}, "T": {"type": "DT_FLOAT"}, "data_format": {"s": "TkhXQw=="}, "use_cudnn_on_gpu": {"b": true}, "epsilon": {"f": 0.0}, "explicit_paddings": {"list": {}}, "padding": {"s": "U0FNRQ=="}, "strides": {"list": {"i": ["1", "1", "1", "1"]}}, "num_args": {"i": "1"}}}, {"name": "StatefulPartitionedCall/sequential/hub_keras_layer_v1v2/StatefulPartitionedCall/efficientnet-lite4/model/blocks_6/Add", "op": "Add", "input": ["StatefulPartitionedCall/sequential/hub_keras_layer_v1v2/StatefulPartitionedCall/efficientnet-lite4/model/blocks_6/tpu_batch_normalization_2/FusedBatchNormV3", "StatefulPartitionedCall/sequential/hub_keras_layer_v1v2/StatefulPartitionedCall/efficientnet-lite4/model/blocks_5/tpu_batch_normalization_2/FusedBatchNormV3"], "attr": {"T": {"type": "DT_FLOAT"}}}, {"name": "StatefulPartitionedCall/sequential/hub_keras_layer_v1v2/StatefulPartitionedCall/efficientnet-lite4/model/blocks_7/Relu6", "op": "_FusedConv2D", "input": ["StatefulPartitionedCall/sequential/hub_keras_layer_v1v2/StatefulPartitionedCall/efficientnet-lite4/model/blocks_6/Add", "StatefulPartitionedCall/sequential/hub_keras_layer_v1v2/StatefulPartitionedCall/efficientnet-lite4/model/blocks_7/conv2d/Conv2D_weights", "StatefulPartitionedCall/sequential/hub_keras_layer_v1v2/StatefulPartitionedCall/efficientnet-lite4/model/blocks_7/conv2d/Conv2D_bn_offset"], "device": "/device:CPU:0", "attr": {"epsilon": {"f": 0.0}, "use_cudnn_on_gpu": {"b": true}, "fused_ops": {"list": {"s": ["Qmlhc0FkZA==", "UmVsdTY="]}}, "T": {"type": "DT_FLOAT"}, "padding": {"s": "U0FNRQ=="}, "data_format": {"s": "TkhXQw=="}, "dilations": {"list": {"i": ["1", "1", "1", "1"]}}, "strides": {"list": {"i": ["1", "1", "1", "1"]}}, "num_args": {"i": "1"}, "explicit_paddings": {"list": {}}}}, {"name": "StatefulPartitionedCall/sequential/hub_keras_layer_v1v2/StatefulPartitionedCall/efficientnet-lite4/model/blocks_7/depthwise_conv2d/depthwise", "op": "FusedDepthwiseConv2dNative", "input": ["StatefulPartitionedCall/sequential/hub_keras_layer_v1v2/StatefulPartitionedCall/efficientnet-lite4/model/blocks_7/Relu6", "StatefulPartitionedCall/sequential/hub_keras_layer_v1v2/StatefulPartitionedCall/efficientnet-lite4/model/blocks_7/depthwise_conv2d/depthwise_weights", "StatefulPartitionedCall/sequential/hub_keras_layer_v1v2/StatefulPartitionedCall/efficientnet-lite4/model/blocks_7/depthwise_conv2d/depthwise_bn_offset"], "attr": {"padding": {"s": "U0FNRQ=="}, "fused_ops": {"list": {"s": ["Qmlhc0FkZA==", "UmVsdTY="]}}, "data_format": {"s": "TkhXQw=="}, "explicit_paddings": {"list": {}}, "dilations": {"list": {"i": ["1", "1", "1", "1"]}}, "T": {"type": "DT_FLOAT"}, "num_args": {"i": "1"}, "strides": {"list": {"i": ["1", "1", "1", "1"]}}}}, {"name": "StatefulPartitionedCall/sequential/hub_keras_layer_v1v2/StatefulPartitionedCall/efficientnet-lite4/model/blocks_7/tpu_batch_normalization_2/FusedBatchNormV3", "op": "_FusedConv2D", "input": ["StatefulPartitionedCall/sequential/hub_keras_layer_v1v2/StatefulPartitionedCall/efficientnet-lite4/model/blocks_7/depthwise_conv2d/depthwise", "StatefulPartitionedCall/sequential/hub_keras_layer_v1v2/StatefulPartitionedCall/efficientnet-lite4/model/blocks_7/conv2d_1/Conv2D_weights", "StatefulPartitionedCall/sequential/hub_keras_layer_v1v2/StatefulPartitionedCall/efficientnet-lite4/model/blocks_7/conv2d_1/Conv2D_bn_offset"], "device": "/device:CPU:0", "attr": {"explicit_paddings": {"list": {}}, "dilations": {"list": {"i": ["1", "1", "1", "1"]}}, "T": {"type": "DT_FLOAT"}, "data_format": {"s": "TkhXQw=="}, "fused_ops": {"list": {"s": ["Qmlhc0FkZA=="]}}, "num_args": {"i": "1"}, "strides": {"list": {"i": ["1", "1", "1", "1"]}}, "padding": {"s": "U0FNRQ=="}, "use_cudnn_on_gpu": {"b": true}, "epsilon": {"f": 0.0}}}, {"name": "StatefulPartitionedCall/sequential/hub_keras_layer_v1v2/StatefulPartitionedCall/efficientnet-lite4/model/blocks_7/Add", "op": "Add", "input": ["StatefulPartitionedCall/sequential/hub_keras_layer_v1v2/StatefulPartitionedCall/efficientnet-lite4/model/blocks_7/tpu_batch_normalization_2/FusedBatchNormV3", "StatefulPartitionedCall/sequential/hub_keras_layer_v1v2/StatefulPartitionedCall/efficientnet-lite4/model/blocks_6/Add"], "attr": {"T": {"type": "DT_FLOAT"}}}, {"name": "StatefulPartitionedCall/sequential/hub_keras_layer_v1v2/StatefulPartitionedCall/efficientnet-lite4/model/blocks_8/Relu6", "op": "_FusedConv2D", "input": ["StatefulPartitionedCall/sequential/hub_keras_layer_v1v2/StatefulPartitionedCall/efficientnet-lite4/model/blocks_7/Add", "StatefulPartitionedCall/sequential/hub_keras_layer_v1v2/StatefulPartitionedCall/efficientnet-lite4/model/blocks_8/conv2d/Conv2D_weights", "StatefulPartitionedCall/sequential/hub_keras_layer_v1v2/StatefulPartitionedCall/efficientnet-lite4/model/blocks_8/conv2d/Conv2D_bn_offset"], "device": "/device:CPU:0", "attr": {"strides": {"list": {"i": ["1", "1", "1", "1"]}}, "data_format": {"s": "TkhXQw=="}, "T": {"type": "DT_FLOAT"}, "use_cudnn_on_gpu": {"b": true}, "num_args": {"i": "1"}, "explicit_paddings": {"list": {}}, "fused_ops": {"list": {"s": ["Qmlhc0FkZA==", "UmVsdTY="]}}, "dilations": {"list": {"i": ["1", "1", "1", "1"]}}, "padding": {"s": "U0FNRQ=="}, "epsilon": {"f": 0.0}}}, {"name": "StatefulPartitionedCall/sequential/hub_keras_layer_v1v2/StatefulPartitionedCall/efficientnet-lite4/model/blocks_8/depthwise_conv2d/depthwise", "op": "FusedDepthwiseConv2dNative", "input": ["StatefulPartitionedCall/sequential/hub_keras_layer_v1v2/StatefulPartitionedCall/efficientnet-lite4/model/blocks_8/Relu6", "StatefulPartitionedCall/sequential/hub_keras_layer_v1v2/StatefulPartitionedCall/efficientnet-lite4/model/blocks_8/depthwise_conv2d/depthwise_weights", "StatefulPartitionedCall/sequential/hub_keras_layer_v1v2/StatefulPartitionedCall/efficientnet-lite4/model/blocks_8/depthwise_conv2d/depthwise_bn_offset"], "attr": {"strides": {"list": {"i": ["1", "1", "1", "1"]}}, "fused_ops": {"list": {"s": ["Qmlhc0FkZA==", "UmVsdTY="]}}, "num_args": {"i": "1"}, "dilations": {"list": {"i": ["1", "1", "1", "1"]}}, "explicit_paddings": {"list": {}}, "data_format": {"s": "TkhXQw=="}, "T": {"type": "DT_FLOAT"}, "padding": {"s": "U0FNRQ=="}}}, {"name": "StatefulPartitionedCall/sequential/hub_keras_layer_v1v2/StatefulPartitionedCall/efficientnet-lite4/model/blocks_8/tpu_batch_normalization_2/FusedBatchNormV3", "op": "_FusedConv2D", "input": ["StatefulPartitionedCall/sequential/hub_keras_layer_v1v2/StatefulPartitionedCall/efficientnet-lite4/model/blocks_8/depthwise_conv2d/depthwise", "StatefulPartitionedCall/sequential/hub_keras_layer_v1v2/StatefulPartitionedCall/efficientnet-lite4/model/blocks_8/conv2d_1/Conv2D_weights", "StatefulPartitionedCall/sequential/hub_keras_layer_v1v2/StatefulPartitionedCall/efficientnet-lite4/model/blocks_8/conv2d_1/Conv2D_bn_offset"], "device": "/device:CPU:0", "attr": {"fused_ops": {"list": {"s": ["Qmlhc0FkZA=="]}}, "padding": {"s": "U0FNRQ=="}, "T": {"type": "DT_FLOAT"}, "use_cudnn_on_gpu": {"b": true}, "explicit_paddings": {"list": {}}, "dilations": {"list": {"i": ["1", "1", "1", "1"]}}, "epsilon": {"f": 0.0}, "data_format": {"s": "TkhXQw=="}, "num_args": {"i": "1"}, "strides": {"list": {"i": ["1", "1", "1", "1"]}}}}, {"name": "StatefulPartitionedCall/sequential/hub_keras_layer_v1v2/StatefulPartitionedCall/efficientnet-lite4/model/blocks_8/Add", "op": "Add", "input": ["StatefulPartitionedCall/sequential/hub_keras_layer_v1v2/StatefulPartitionedCall/efficientnet-lite4/model/blocks_8/tpu_batch_normalization_2/FusedBatchNormV3", "StatefulPartitionedCall/sequential/hub_keras_layer_v1v2/StatefulPartitionedCall/efficientnet-lite4/model/blocks_7/Add"], "attr": {"T": {"type": "DT_FLOAT"}}}, {"name": "StatefulPartitionedCall/sequential/hub_keras_layer_v1v2/StatefulPartitionedCall/efficientnet-lite4/model/blocks_9/Relu6", "op": "_FusedConv2D", "input": ["StatefulPartitionedCall/sequential/hub_keras_layer_v1v2/StatefulPartitionedCall/efficientnet-lite4/model/blocks_8/Add", "StatefulPartitionedCall/sequential/hub_keras_layer_v1v2/StatefulPartitionedCall/efficientnet-lite4/model/blocks_9/conv2d/Conv2D_weights", "StatefulPartitionedCall/sequential/hub_keras_layer_v1v2/StatefulPartitionedCall/efficientnet-lite4/model/blocks_9/conv2d/Conv2D_bn_offset"], "device": "/device:CPU:0", "attr": {"strides": {"list": {"i": ["1", "1", "1", "1"]}}, "padding": {"s": "U0FNRQ=="}, "T": {"type": "DT_FLOAT"}, "fused_ops": {"list": {"s": ["Qmlhc0FkZA==", "UmVsdTY="]}}, "num_args": {"i": "1"}, "epsilon": {"f": 0.0}, "use_cudnn_on_gpu": {"b": true}, "explicit_paddings": {"list": {}}, "data_format": {"s": "TkhXQw=="}, "dilations": {"list": {"i": ["1", "1", "1", "1"]}}}}, {"name": "StatefulPartitionedCall/sequential/hub_keras_layer_v1v2/StatefulPartitionedCall/efficientnet-lite4/model/blocks_9/depthwise_conv2d/depthwise", "op": "FusedDepthwiseConv2dNative", "input": ["StatefulPartitionedCall/sequential/hub_keras_layer_v1v2/StatefulPartitionedCall/efficientnet-lite4/model/blocks_9/Relu6", "StatefulPartitionedCall/sequential/hub_keras_layer_v1v2/StatefulPartitionedCall/efficientnet-lite4/model/blocks_9/depthwise_conv2d/depthwise_weights", "StatefulPartitionedCall/sequential/hub_keras_layer_v1v2/StatefulPartitionedCall/efficientnet-lite4/model/blocks_9/depthwise_conv2d/depthwise_bn_offset"], "attr": {"num_args": {"i": "1"}, "fused_ops": {"list": {"s": ["Qmlhc0FkZA==", "UmVsdTY="]}}, "padding": {"s": "U0FNRQ=="}, "explicit_paddings": {"list": {}}, "strides": {"list": {"i": ["1", "2", "2", "1"]}}, "T": {"type": "DT_FLOAT"}, "data_format": {"s": "TkhXQw=="}, "dilations": {"list": {"i": ["1", "1", "1", "1"]}}}}, {"name": "StatefulPartitionedCall/sequential/hub_keras_layer_v1v2/StatefulPartitionedCall/efficientnet-lite4/model/blocks_9/tpu_batch_normalization_2/FusedBatchNormV3", "op": "_FusedConv2D", "input": ["StatefulPartitionedCall/sequential/hub_keras_layer_v1v2/StatefulPartitionedCall/efficientnet-lite4/model/blocks_9/depthwise_conv2d/depthwise", "StatefulPartitionedCall/sequential/hub_keras_layer_v1v2/StatefulPartitionedCall/efficientnet-lite4/model/blocks_9/conv2d_1/Conv2D_weights", "StatefulPartitionedCall/sequential/hub_keras_layer_v1v2/StatefulPartitionedCall/efficientnet-lite4/model/blocks_9/conv2d_1/Conv2D_bn_offset"], "device": "/device:CPU:0", "attr": {"dilations": {"list": {"i": ["1", "1", "1", "1"]}}, "T": {"type": "DT_FLOAT"}, "padding": {"s": "U0FNRQ=="}, "explicit_paddings": {"list": {}}, "use_cudnn_on_gpu": {"b": true}, "data_format": {"s": "TkhXQw=="}, "num_args": {"i": "1"}, "epsilon": {"f": 0.0}, "fused_ops": {"list": {"s": ["Qmlhc0FkZA=="]}}, "strides": {"list": {"i": ["1", "1", "1", "1"]}}}}, {"name": "StatefulPartitionedCall/sequential/hub_keras_layer_v1v2/StatefulPartitionedCall/efficientnet-lite4/model/blocks_10/Relu6", "op": "_FusedConv2D", "input": ["StatefulPartitionedCall/sequential/hub_keras_layer_v1v2/StatefulPartitionedCall/efficientnet-lite4/model/blocks_9/tpu_batch_normalization_2/FusedBatchNormV3", "StatefulPartitionedCall/sequential/hub_keras_layer_v1v2/StatefulPartitionedCall/efficientnet-lite4/model/blocks_10/conv2d/Conv2D_weights", "StatefulPartitionedCall/sequential/hub_keras_layer_v1v2/StatefulPartitionedCall/efficientnet-lite4/model/blocks_10/conv2d/Conv2D_bn_offset"], "device": "/device:CPU:0", "attr": {"data_format": {"s": "TkhXQw=="}, "padding": {"s": "U0FNRQ=="}, "dilations": {"list": {"i": ["1", "1", "1", "1"]}}, "T": {"type": "DT_FLOAT"}, "num_args": {"i": "1"}, "epsilon": {"f": 0.0}, "fused_ops": {"list": {"s": ["Qmlhc0FkZA==", "UmVsdTY="]}}, "explicit_paddings": {"list": {}}, "use_cudnn_on_gpu": {"b": true}, "strides": {"list": {"i": ["1", "1", "1", "1"]}}}}, {"name": "StatefulPartitionedCall/sequential/hub_keras_layer_v1v2/StatefulPartitionedCall/efficientnet-lite4/model/blocks_10/depthwise_conv2d/depthwise", "op": "FusedDepthwiseConv2dNative", "input": ["StatefulPartitionedCall/sequential/hub_keras_layer_v1v2/StatefulPartitionedCall/efficientnet-lite4/model/blocks_10/Relu6", "StatefulPartitionedCall/sequential/hub_keras_layer_v1v2/StatefulPartitionedCall/efficientnet-lite4/model/blocks_10/depthwise_conv2d/depthwise_weights", "StatefulPartitionedCall/sequential/hub_keras_layer_v1v2/StatefulPartitionedCall/efficientnet-lite4/model/blocks_10/depthwise_conv2d/depthwise_bn_offset"], "attr": {"T": {"type": "DT_FLOAT"}, "explicit_paddings": {"list": {}}, "padding": {"s": "U0FNRQ=="}, "num_args": {"i": "1"}, "fused_ops": {"list": {"s": ["Qmlhc0FkZA==", "UmVsdTY="]}}, "dilations": {"list": {"i": ["1", "1", "1", "1"]}}, "data_format": {"s": "TkhXQw=="}, "strides": {"list": {"i": ["1", "1", "1", "1"]}}}}, {"name": "StatefulPartitionedCall/sequential/hub_keras_layer_v1v2/StatefulPartitionedCall/efficientnet-lite4/model/blocks_10/tpu_batch_normalization_2/FusedBatchNormV3", "op": "_FusedConv2D", "input": ["StatefulPartitionedCall/sequential/hub_keras_layer_v1v2/StatefulPartitionedCall/efficientnet-lite4/model/blocks_10/depthwise_conv2d/depthwise", "StatefulPartitionedCall/sequential/hub_keras_layer_v1v2/StatefulPartitionedCall/efficientnet-lite4/model/blocks_10/conv2d_1/Conv2D_weights", "StatefulPartitionedCall/sequential/hub_keras_layer_v1v2/StatefulPartitionedCall/efficientnet-lite4/model/blocks_10/conv2d_1/Conv2D_bn_offset"], "device": "/device:CPU:0", "attr": {"use_cudnn_on_gpu": {"b": true}, "fused_ops": {"list": {"s": ["Qmlhc0FkZA=="]}}, "T": {"type": "DT_FLOAT"}, "num_args": {"i": "1"}, "epsilon": {"f": 0.0}, "padding": {"s": "U0FNRQ=="}, "data_format": {"s": "TkhXQw=="}, "explicit_paddings": {"list": {}}, "dilations": {"list": {"i": ["1", "1", "1", "1"]}}, "strides": {"list": {"i": ["1", "1", "1", "1"]}}}}, {"name": "StatefulPartitionedCall/sequential/hub_keras_layer_v1v2/StatefulPartitionedCall/efficientnet-lite4/model/blocks_10/Add", "op": "Add", "input": ["StatefulPartitionedCall/sequential/hub_keras_layer_v1v2/StatefulPartitionedCall/efficientnet-lite4/model/blocks_10/tpu_batch_normalization_2/FusedBatchNormV3", "StatefulPartitionedCall/sequential/hub_keras_layer_v1v2/StatefulPartitionedCall/efficientnet-lite4/model/blocks_9/tpu_batch_normalization_2/FusedBatchNormV3"], "attr": {"T": {"type": "DT_FLOAT"}}}, {"name": "StatefulPartitionedCall/sequential/hub_keras_layer_v1v2/StatefulPartitionedCall/efficientnet-lite4/model/blocks_11/Relu6", "op": "_FusedConv2D", "input": ["StatefulPartitionedCall/sequential/hub_keras_layer_v1v2/StatefulPartitionedCall/efficientnet-lite4/model/blocks_10/Add", "StatefulPartitionedCall/sequential/hub_keras_layer_v1v2/StatefulPartitionedCall/efficientnet-lite4/model/blocks_11/conv2d/Conv2D_weights", "StatefulPartitionedCall/sequential/hub_keras_layer_v1v2/StatefulPartitionedCall/efficientnet-lite4/model/blocks_11/conv2d/Conv2D_bn_offset"], "device": "/device:CPU:0", "attr": {"padding": {"s": "U0FNRQ=="}, "strides": {"list": {"i": ["1", "1", "1", "1"]}}, "dilations": {"list": {"i": ["1", "1", "1", "1"]}}, "fused_ops": {"list": {"s": ["Qmlhc0FkZA==", "UmVsdTY="]}}, "explicit_paddings": {"list": {}}, "T": {"type": "DT_FLOAT"}, "data_format": {"s": "TkhXQw=="}, "num_args": {"i": "1"}, "use_cudnn_on_gpu": {"b": true}, "epsilon": {"f": 0.0}}}, {"name": "StatefulPartitionedCall/sequential/hub_keras_layer_v1v2/StatefulPartitionedCall/efficientnet-lite4/model/blocks_11/depthwise_conv2d/depthwise", "op": "FusedDepthwiseConv2dNative", "input": ["StatefulPartitionedCall/sequential/hub_keras_layer_v1v2/StatefulPartitionedCall/efficientnet-lite4/model/blocks_11/Relu6", "StatefulPartitionedCall/sequential/hub_keras_layer_v1v2/StatefulPartitionedCall/efficientnet-lite4/model/blocks_11/depthwise_conv2d/depthwise_weights", "StatefulPartitionedCall/sequential/hub_keras_layer_v1v2/StatefulPartitionedCall/efficientnet-lite4/model/blocks_11/depthwise_conv2d/depthwise_bn_offset"], "attr": {"T": {"type": "DT_FLOAT"}, "padding": {"s": "U0FNRQ=="}, "data_format": {"s": "TkhXQw=="}, "num_args": {"i": "1"}, "strides": {"list": {"i": ["1", "1", "1", "1"]}}, "explicit_paddings": {"list": {}}, "fused_ops": {"list": {"s": ["Qmlhc0FkZA==", "UmVsdTY="]}}, "dilations": {"list": {"i": ["1", "1", "1", "1"]}}}}, {"name": "StatefulPartitionedCall/sequential/hub_keras_layer_v1v2/StatefulPartitionedCall/efficientnet-lite4/model/blocks_11/tpu_batch_normalization_2/FusedBatchNormV3", "op": "_FusedConv2D", "input": ["StatefulPartitionedCall/sequential/hub_keras_layer_v1v2/StatefulPartitionedCall/efficientnet-lite4/model/blocks_11/depthwise_conv2d/depthwise", "StatefulPartitionedCall/sequential/hub_keras_layer_v1v2/StatefulPartitionedCall/efficientnet-lite4/model/blocks_11/conv2d_1/Conv2D_weights", "StatefulPartitionedCall/sequential/hub_keras_layer_v1v2/StatefulPartitionedCall/efficientnet-lite4/model/blocks_11/conv2d_1/Conv2D_bn_offset"], "device": "/device:CPU:0", "attr": {"strides": {"list": {"i": ["1", "1", "1", "1"]}}, "T": {"type": "DT_FLOAT"}, "dilations": {"list": {"i": ["1", "1", "1", "1"]}}, "padding": {"s": "U0FNRQ=="}, "epsilon": {"f": 0.0}, "explicit_paddings": {"list": {}}, "fused_ops": {"list": {"s": ["Qmlhc0FkZA=="]}}, "data_format": {"s": "TkhXQw=="}, "use_cudnn_on_gpu": {"b": true}, "num_args": {"i": "1"}}}, {"name": "StatefulPartitionedCall/sequential/hub_keras_layer_v1v2/StatefulPartitionedCall/efficientnet-lite4/model/blocks_11/Add", "op": "Add", "input": ["StatefulPartitionedCall/sequential/hub_keras_layer_v1v2/StatefulPartitionedCall/efficientnet-lite4/model/blocks_11/tpu_batch_normalization_2/FusedBatchNormV3", "StatefulPartitionedCall/sequential/hub_keras_layer_v1v2/StatefulPartitionedCall/efficientnet-lite4/model/blocks_10/Add"], "attr": {"T": {"type": "DT_FLOAT"}}}, {"name": "StatefulPartitionedCall/sequential/hub_keras_layer_v1v2/StatefulPartitionedCall/efficientnet-lite4/model/blocks_12/Relu6", "op": "_FusedConv2D", "input": ["StatefulPartitionedCall/sequential/hub_keras_layer_v1v2/StatefulPartitionedCall/efficientnet-lite4/model/blocks_11/Add", "StatefulPartitionedCall/sequential/hub_keras_layer_v1v2/StatefulPartitionedCall/efficientnet-lite4/model/blocks_12/conv2d/Conv2D_weights", "StatefulPartitionedCall/sequential/hub_keras_layer_v1v2/StatefulPartitionedCall/efficientnet-lite4/model/blocks_12/conv2d/Conv2D_bn_offset"], "device": "/device:CPU:0", "attr": {"epsilon": {"f": 0.0}, "dilations": {"list": {"i": ["1", "1", "1", "1"]}}, "data_format": {"s": "TkhXQw=="}, "num_args": {"i": "1"}, "T": {"type": "DT_FLOAT"}, "padding": {"s": "U0FNRQ=="}, "fused_ops": {"list": {"s": ["Qmlhc0FkZA==", "UmVsdTY="]}}, "strides": {"list": {"i": ["1", "1", "1", "1"]}}, "explicit_paddings": {"list": {}}, "use_cudnn_on_gpu": {"b": true}}}, {"name": "StatefulPartitionedCall/sequential/hub_keras_layer_v1v2/StatefulPartitionedCall/efficientnet-lite4/model/blocks_12/depthwise_conv2d/depthwise", "op": "FusedDepthwiseConv2dNative", "input": ["StatefulPartitionedCall/sequential/hub_keras_layer_v1v2/StatefulPartitionedCall/efficientnet-lite4/model/blocks_12/Relu6", "StatefulPartitionedCall/sequential/hub_keras_layer_v1v2/StatefulPartitionedCall/efficientnet-lite4/model/blocks_12/depthwise_conv2d/depthwise_weights", "StatefulPartitionedCall/sequential/hub_keras_layer_v1v2/StatefulPartitionedCall/efficientnet-lite4/model/blocks_12/depthwise_conv2d/depthwise_bn_offset"], "attr": {"fused_ops": {"list": {"s": ["Qmlhc0FkZA==", "UmVsdTY="]}}, "data_format": {"s": "TkhXQw=="}, "num_args": {"i": "1"}, "T": {"type": "DT_FLOAT"}, "padding": {"s": "U0FNRQ=="}, "dilations": {"list": {"i": ["1", "1", "1", "1"]}}, "strides": {"list": {"i": ["1", "1", "1", "1"]}}, "explicit_paddings": {"list": {}}}}, {"name": "StatefulPartitionedCall/sequential/hub_keras_layer_v1v2/StatefulPartitionedCall/efficientnet-lite4/model/blocks_12/tpu_batch_normalization_2/FusedBatchNormV3", "op": "_FusedConv2D", "input": ["StatefulPartitionedCall/sequential/hub_keras_layer_v1v2/StatefulPartitionedCall/efficientnet-lite4/model/blocks_12/depthwise_conv2d/depthwise", "StatefulPartitionedCall/sequential/hub_keras_layer_v1v2/StatefulPartitionedCall/efficientnet-lite4/model/blocks_12/conv2d_1/Conv2D_weights", "StatefulPartitionedCall/sequential/hub_keras_layer_v1v2/StatefulPartitionedCall/efficientnet-lite4/model/blocks_12/conv2d_1/Conv2D_bn_offset"], "device": "/device:CPU:0", "attr": {"use_cudnn_on_gpu": {"b": true}, "strides": {"list": {"i": ["1", "1", "1", "1"]}}, "padding": {"s": "U0FNRQ=="}, "epsilon": {"f": 0.0}, "T": {"type": "DT_FLOAT"}, "fused_ops": {"list": {"s": ["Qmlhc0FkZA=="]}}, "num_args": {"i": "1"}, "explicit_paddings": {"list": {}}, "dilations": {"list": {"i": ["1", "1", "1", "1"]}}, "data_format": {"s": "TkhXQw=="}}}, {"name": "StatefulPartitionedCall/sequential/hub_keras_layer_v1v2/StatefulPartitionedCall/efficientnet-lite4/model/blocks_12/Add", "op": "Add", "input": ["StatefulPartitionedCall/sequential/hub_keras_layer_v1v2/StatefulPartitionedCall/efficientnet-lite4/model/blocks_12/tpu_batch_normalization_2/FusedBatchNormV3", "StatefulPartitionedCall/sequential/hub_keras_layer_v1v2/StatefulPartitionedCall/efficientnet-lite4/model/blocks_11/Add"], "attr": {"T": {"type": "DT_FLOAT"}}}, {"name": "StatefulPartitionedCall/sequential/hub_keras_layer_v1v2/StatefulPartitionedCall/efficientnet-lite4/model/blocks_13/Relu6", "op": "_FusedConv2D", "input": ["StatefulPartitionedCall/sequential/hub_keras_layer_v1v2/StatefulPartitionedCall/efficientnet-lite4/model/blocks_12/Add", "StatefulPartitionedCall/sequential/hub_keras_layer_v1v2/StatefulPartitionedCall/efficientnet-lite4/model/blocks_13/conv2d/Conv2D_weights", "StatefulPartitionedCall/sequential/hub_keras_layer_v1v2/StatefulPartitionedCall/efficientnet-lite4/model/blocks_13/conv2d/Conv2D_bn_offset"], "device": "/device:CPU:0", "attr": {"fused_ops": {"list": {"s": ["Qmlhc0FkZA==", "UmVsdTY="]}}, "use_cudnn_on_gpu": {"b": true}, "padding": {"s": "U0FNRQ=="}, "strides": {"list": {"i": ["1", "1", "1", "1"]}}, "T": {"type": "DT_FLOAT"}, "data_format": {"s": "TkhXQw=="}, "epsilon": {"f": 0.0}, "num_args": {"i": "1"}, "explicit_paddings": {"list": {}}, "dilations": {"list": {"i": ["1", "1", "1", "1"]}}}}, {"name": "StatefulPartitionedCall/sequential/hub_keras_layer_v1v2/StatefulPartitionedCall/efficientnet-lite4/model/blocks_13/depthwise_conv2d/depthwise", "op": "FusedDepthwiseConv2dNative", "input": ["StatefulPartitionedCall/sequential/hub_keras_layer_v1v2/StatefulPartitionedCall/efficientnet-lite4/model/blocks_13/Relu6", "StatefulPartitionedCall/sequential/hub_keras_layer_v1v2/StatefulPartitionedCall/efficientnet-lite4/model/blocks_13/depthwise_conv2d/depthwise_weights", "StatefulPartitionedCall/sequential/hub_keras_layer_v1v2/StatefulPartitionedCall/efficientnet-lite4/model/blocks_13/depthwise_conv2d/depthwise_bn_offset"], "attr": {"strides": {"list": {"i": ["1", "1", "1", "1"]}}, "data_format": {"s": "TkhXQw=="}, "num_args": {"i": "1"}, "T": {"type": "DT_FLOAT"}, "padding": {"s": "U0FNRQ=="}, "explicit_paddings": {"list": {}}, "fused_ops": {"list": {"s": ["Qmlhc0FkZA==", "UmVsdTY="]}}, "dilations": {"list": {"i": ["1", "1", "1", "1"]}}}}, {"name": "StatefulPartitionedCall/sequential/hub_keras_layer_v1v2/StatefulPartitionedCall/efficientnet-lite4/model/blocks_13/tpu_batch_normalization_2/FusedBatchNormV3", "op": "_FusedConv2D", "input": ["StatefulPartitionedCall/sequential/hub_keras_layer_v1v2/StatefulPartitionedCall/efficientnet-lite4/model/blocks_13/depthwise_conv2d/depthwise", "StatefulPartitionedCall/sequential/hub_keras_layer_v1v2/StatefulPartitionedCall/efficientnet-lite4/model/blocks_13/conv2d_1/Conv2D_weights", "StatefulPartitionedCall/sequential/hub_keras_layer_v1v2/StatefulPartitionedCall/efficientnet-lite4/model/blocks_13/conv2d_1/Conv2D_bn_offset"], "device": "/device:CPU:0", "attr": {"T": {"type": "DT_FLOAT"}, "dilations": {"list": {"i": ["1", "1", "1", "1"]}}, "fused_ops": {"list": {"s": ["Qmlhc0FkZA=="]}}, "use_cudnn_on_gpu": {"b": true}, "padding": {"s": "U0FNRQ=="}, "explicit_paddings": {"list": {}}, "num_args": {"i": "1"}, "data_format": {"s": "TkhXQw=="}, "strides": {"list": {"i": ["1", "1", "1", "1"]}}, "epsilon": {"f": 0.0}}}, {"name": "StatefulPartitionedCall/sequential/hub_keras_layer_v1v2/StatefulPartitionedCall/efficientnet-lite4/model/blocks_13/Add", "op": "Add", "input": ["StatefulPartitionedCall/sequential/hub_keras_layer_v1v2/StatefulPartitionedCall/efficientnet-lite4/model/blocks_13/tpu_batch_normalization_2/FusedBatchNormV3", "StatefulPartitionedCall/sequential/hub_keras_layer_v1v2/StatefulPartitionedCall/efficientnet-lite4/model/blocks_12/Add"], "attr": {"T": {"type": "DT_FLOAT"}}}, {"name": "StatefulPartitionedCall/sequential/hub_keras_layer_v1v2/StatefulPartitionedCall/efficientnet-lite4/model/blocks_14/Relu6", "op": "_FusedConv2D", "input": ["StatefulPartitionedCall/sequential/hub_keras_layer_v1v2/StatefulPartitionedCall/efficientnet-lite4/model/blocks_13/Add", "StatefulPartitionedCall/sequential/hub_keras_layer_v1v2/StatefulPartitionedCall/efficientnet-lite4/model/blocks_14/conv2d/Conv2D_weights", "StatefulPartitionedCall/sequential/hub_keras_layer_v1v2/StatefulPartitionedCall/efficientnet-lite4/model/blocks_14/conv2d/Conv2D_bn_offset"], "device": "/device:CPU:0", "attr": {"epsilon": {"f": 0.0}, "explicit_paddings": {"list": {}}, "T": {"type": "DT_FLOAT"}, "num_args": {"i": "1"}, "fused_ops": {"list": {"s": ["Qmlhc0FkZA==", "UmVsdTY="]}}, "use_cudnn_on_gpu": {"b": true}, "strides": {"list": {"i": ["1", "1", "1", "1"]}}, "padding": {"s": "U0FNRQ=="}, "dilations": {"list": {"i": ["1", "1", "1", "1"]}}, "data_format": {"s": "TkhXQw=="}}}, {"name": "StatefulPartitionedCall/sequential/hub_keras_layer_v1v2/StatefulPartitionedCall/efficientnet-lite4/model/blocks_14/depthwise_conv2d/depthwise", "op": "FusedDepthwiseConv2dNative", "input": ["StatefulPartitionedCall/sequential/hub_keras_layer_v1v2/StatefulPartitionedCall/efficientnet-lite4/model/blocks_14/Relu6", "StatefulPartitionedCall/sequential/hub_keras_layer_v1v2/StatefulPartitionedCall/efficientnet-lite4/model/blocks_14/depthwise_conv2d/depthwise_weights", "StatefulPartitionedCall/sequential/hub_keras_layer_v1v2/StatefulPartitionedCall/efficientnet-lite4/model/blocks_14/depthwise_conv2d/depthwise_bn_offset"], "attr": {"padding": {"s": "U0FNRQ=="}, "data_format": {"s": "TkhXQw=="}, "num_args": {"i": "1"}, "fused_ops": {"list": {"s": ["Qmlhc0FkZA==", "UmVsdTY="]}}, "strides": {"list": {"i": ["1", "1", "1", "1"]}}, "dilations": {"list": {"i": ["1", "1", "1", "1"]}}, "explicit_paddings": {"list": {}}, "T": {"type": "DT_FLOAT"}}}, {"name": "StatefulPartitionedCall/sequential/hub_keras_layer_v1v2/StatefulPartitionedCall/efficientnet-lite4/model/blocks_14/tpu_batch_normalization_2/FusedBatchNormV3", "op": "_FusedConv2D", "input": ["StatefulPartitionedCall/sequential/hub_keras_layer_v1v2/StatefulPartitionedCall/efficientnet-lite4/model/blocks_14/depthwise_conv2d/depthwise", "StatefulPartitionedCall/sequential/hub_keras_layer_v1v2/StatefulPartitionedCall/efficientnet-lite4/model/blocks_14/conv2d_1/Conv2D_weights", "StatefulPartitionedCall/sequential/hub_keras_layer_v1v2/StatefulPartitionedCall/efficientnet-lite4/model/blocks_14/conv2d_1/Conv2D_bn_offset"], "device": "/device:CPU:0", "attr": {"T": {"type": "DT_FLOAT"}, "padding": {"s": "U0FNRQ=="}, "data_format": {"s": "TkhXQw=="}, "strides": {"list": {"i": ["1", "1", "1", "1"]}}, "epsilon": {"f": 0.0}, "dilations": {"list": {"i": ["1", "1", "1", "1"]}}, "fused_ops": {"list": {"s": ["Qmlhc0FkZA=="]}}, "explicit_paddings": {"list": {}}, "use_cudnn_on_gpu": {"b": true}, "num_args": {"i": "1"}}}, {"name": "StatefulPartitionedCall/sequential/hub_keras_layer_v1v2/StatefulPartitionedCall/efficientnet-lite4/model/blocks_14/Add", "op": "Add", "input": ["StatefulPartitionedCall/sequential/hub_keras_layer_v1v2/StatefulPartitionedCall/efficientnet-lite4/model/blocks_14/tpu_batch_normalization_2/FusedBatchNormV3", "StatefulPartitionedCall/sequential/hub_keras_layer_v1v2/StatefulPartitionedCall/efficientnet-lite4/model/blocks_13/Add"], "attr": {"T": {"type": "DT_FLOAT"}}}, {"name": "StatefulPartitionedCall/sequential/hub_keras_layer_v1v2/StatefulPartitionedCall/efficientnet-lite4/model/blocks_15/Relu6", "op": "_FusedConv2D", "input": ["StatefulPartitionedCall/sequential/hub_keras_layer_v1v2/StatefulPartitionedCall/efficientnet-lite4/model/blocks_14/Add", "StatefulPartitionedCall/sequential/hub_keras_layer_v1v2/StatefulPartitionedCall/efficientnet-lite4/model/blocks_15/conv2d/Conv2D_weights", "StatefulPartitionedCall/sequential/hub_keras_layer_v1v2/StatefulPartitionedCall/efficientnet-lite4/model/blocks_15/conv2d/Conv2D_bn_offset"], "device": "/device:CPU:0", "attr": {"dilations": {"list": {"i": ["1", "1", "1", "1"]}}, "padding": {"s": "U0FNRQ=="}, "T": {"type": "DT_FLOAT"}, "epsilon": {"f": 0.0}, "num_args": {"i": "1"}, "explicit_paddings": {"list": {}}, "fused_ops": {"list": {"s": ["Qmlhc0FkZA==", "UmVsdTY="]}}, "use_cudnn_on_gpu": {"b": true}, "strides": {"list": {"i": ["1", "1", "1", "1"]}}, "data_format": {"s": "TkhXQw=="}}}, {"name": "StatefulPartitionedCall/sequential/hub_keras_layer_v1v2/StatefulPartitionedCall/efficientnet-lite4/model/blocks_15/depthwise_conv2d/depthwise", "op": "FusedDepthwiseConv2dNative", "input": ["StatefulPartitionedCall/sequential/hub_keras_layer_v1v2/StatefulPartitionedCall/efficientnet-lite4/model/blocks_15/Relu6", "StatefulPartitionedCall/sequential/hub_keras_layer_v1v2/StatefulPartitionedCall/efficientnet-lite4/model/blocks_15/depthwise_conv2d/depthwise_weights", "StatefulPartitionedCall/sequential/hub_keras_layer_v1v2/StatefulPartitionedCall/efficientnet-lite4/model/blocks_15/depthwise_conv2d/depthwise_bn_offset"], "attr": {"data_format": {"s": "TkhXQw=="}, "dilations": {"list": {"i": ["1", "1", "1", "1"]}}, "T": {"type": "DT_FLOAT"}, "explicit_paddings": {"list": {}}, "fused_ops": {"list": {"s": ["Qmlhc0FkZA==", "UmVsdTY="]}}, "padding": {"s": "U0FNRQ=="}, "strides": {"list": {"i": ["1", "1", "1", "1"]}}, "num_args": {"i": "1"}}}, {"name": "StatefulPartitionedCall/sequential/hub_keras_layer_v1v2/StatefulPartitionedCall/efficientnet-lite4/model/blocks_15/tpu_batch_normalization_2/FusedBatchNormV3", "op": "_FusedConv2D", "input": ["StatefulPartitionedCall/sequential/hub_keras_layer_v1v2/StatefulPartitionedCall/efficientnet-lite4/model/blocks_15/depthwise_conv2d/depthwise", "StatefulPartitionedCall/sequential/hub_keras_layer_v1v2/StatefulPartitionedCall/efficientnet-lite4/model/blocks_15/conv2d_1/Conv2D_weights", "StatefulPartitionedCall/sequential/hub_keras_layer_v1v2/StatefulPartitionedCall/efficientnet-lite4/model/blocks_15/conv2d_1/Conv2D_bn_offset"], "device": "/device:CPU:0", "attr": {"num_args": {"i": "1"}, "dilations": {"list": {"i": ["1", "1", "1", "1"]}}, "T": {"type": "DT_FLOAT"}, "use_cudnn_on_gpu": {"b": true}, "fused_ops": {"list": {"s": ["Qmlhc0FkZA=="]}}, "padding": {"s": "U0FNRQ=="}, "explicit_paddings": {"list": {}}, "data_format": {"s": "TkhXQw=="}, "strides": {"list": {"i": ["1", "1", "1", "1"]}}, "epsilon": {"f": 0.0}}}, {"name": "StatefulPartitionedCall/sequential/hub_keras_layer_v1v2/StatefulPartitionedCall/efficientnet-lite4/model/blocks_16/Relu6", "op": "_FusedConv2D", "input": ["StatefulPartitionedCall/sequential/hub_keras_layer_v1v2/StatefulPartitionedCall/efficientnet-lite4/model/blocks_15/tpu_batch_normalization_2/FusedBatchNormV3", "StatefulPartitionedCall/sequential/hub_keras_layer_v1v2/StatefulPartitionedCall/efficientnet-lite4/model/blocks_16/conv2d/Conv2D_weights", "StatefulPartitionedCall/sequential/hub_keras_layer_v1v2/StatefulPartitionedCall/efficientnet-lite4/model/blocks_16/conv2d/Conv2D_bn_offset"], "device": "/device:CPU:0", "attr": {"epsilon": {"f": 0.0}, "fused_ops": {"list": {"s": ["Qmlhc0FkZA==", "UmVsdTY="]}}, "use_cudnn_on_gpu": {"b": true}, "dilations": {"list": {"i": ["1", "1", "1", "1"]}}, "explicit_paddings": {"list": {}}, "strides": {"list": {"i": ["1", "1", "1", "1"]}}, "data_format": {"s": "TkhXQw=="}, "padding": {"s": "U0FNRQ=="}, "num_args": {"i": "1"}, "T": {"type": "DT_FLOAT"}}}, {"name": "StatefulPartitionedCall/sequential/hub_keras_layer_v1v2/StatefulPartitionedCall/efficientnet-lite4/model/blocks_16/depthwise_conv2d/depthwise", "op": "FusedDepthwiseConv2dNative", "input": ["StatefulPartitionedCall/sequential/hub_keras_layer_v1v2/StatefulPartitionedCall/efficientnet-lite4/model/blocks_16/Relu6", "StatefulPartitionedCall/sequential/hub_keras_layer_v1v2/StatefulPartitionedCall/efficientnet-lite4/model/blocks_16/depthwise_conv2d/depthwise_weights", "StatefulPartitionedCall/sequential/hub_keras_layer_v1v2/StatefulPartitionedCall/efficientnet-lite4/model/blocks_16/depthwise_conv2d/depthwise_bn_offset"], "attr": {"strides": {"list": {"i": ["1", "1", "1", "1"]}}, "data_format": {"s": "TkhXQw=="}, "padding": {"s": "U0FNRQ=="}, "fused_ops": {"list": {"s": ["Qmlhc0FkZA==", "UmVsdTY="]}}, "explicit_paddings": {"list": {}}, "dilations": {"list": {"i": ["1", "1", "1", "1"]}}, "T": {"type": "DT_FLOAT"}, "num_args": {"i": "1"}}}, {"name": "StatefulPartitionedCall/sequential/hub_keras_layer_v1v2/StatefulPartitionedCall/efficientnet-lite4/model/blocks_16/tpu_batch_normalization_2/FusedBatchNormV3", "op": "_FusedConv2D", "input": ["StatefulPartitionedCall/sequential/hub_keras_layer_v1v2/StatefulPartitionedCall/efficientnet-lite4/model/blocks_16/depthwise_conv2d/depthwise", "StatefulPartitionedCall/sequential/hub_keras_layer_v1v2/StatefulPartitionedCall/efficientnet-lite4/model/blocks_16/conv2d_1/Conv2D_weights", "StatefulPartitionedCall/sequential/hub_keras_layer_v1v2/StatefulPartitionedCall/efficientnet-lite4/model/blocks_16/conv2d_1/Conv2D_bn_offset"], "device": "/device:CPU:0", "attr": {"explicit_paddings": {"list": {}}, "dilations": {"list": {"i": ["1", "1", "1", "1"]}}, "epsilon": {"f": 0.0}, "T": {"type": "DT_FLOAT"}, "padding": {"s": "U0FNRQ=="}, "num_args": {"i": "1"}, "data_format": {"s": "TkhXQw=="}, "fused_ops": {"list": {"s": ["Qmlhc0FkZA=="]}}, "strides": {"list": {"i": ["1", "1", "1", "1"]}}, "use_cudnn_on_gpu": {"b": true}}}, {"name": "StatefulPartitionedCall/sequential/hub_keras_layer_v1v2/StatefulPartitionedCall/efficientnet-lite4/model/blocks_16/Add", "op": "Add", "input": ["StatefulPartitionedCall/sequential/hub_keras_layer_v1v2/StatefulPartitionedCall/efficientnet-lite4/model/blocks_16/tpu_batch_normalization_2/FusedBatchNormV3", "StatefulPartitionedCall/sequential/hub_keras_layer_v1v2/StatefulPartitionedCall/efficientnet-lite4/model/blocks_15/tpu_batch_normalization_2/FusedBatchNormV3"], "attr": {"T": {"type": "DT_FLOAT"}}}, {"name": "StatefulPartitionedCall/sequential/hub_keras_layer_v1v2/StatefulPartitionedCall/efficientnet-lite4/model/blocks_17/Relu6", "op": "_FusedConv2D", "input": ["StatefulPartitionedCall/sequential/hub_keras_layer_v1v2/StatefulPartitionedCall/efficientnet-lite4/model/blocks_16/Add", "StatefulPartitionedCall/sequential/hub_keras_layer_v1v2/StatefulPartitionedCall/efficientnet-lite4/model/blocks_17/conv2d/Conv2D_weights", "StatefulPartitionedCall/sequential/hub_keras_layer_v1v2/StatefulPartitionedCall/efficientnet-lite4/model/blocks_17/conv2d/Conv2D_bn_offset"], "device": "/device:CPU:0", "attr": {"num_args": {"i": "1"}, "padding": {"s": "U0FNRQ=="}, "T": {"type": "DT_FLOAT"}, "explicit_paddings": {"list": {}}, "epsilon": {"f": 0.0}, "data_format": {"s": "TkhXQw=="}, "strides": {"list": {"i": ["1", "1", "1", "1"]}}, "fused_ops": {"list": {"s": ["Qmlhc0FkZA==", "UmVsdTY="]}}, "use_cudnn_on_gpu": {"b": true}, "dilations": {"list": {"i": ["1", "1", "1", "1"]}}}}, {"name": "StatefulPartitionedCall/sequential/hub_keras_layer_v1v2/StatefulPartitionedCall/efficientnet-lite4/model/blocks_17/depthwise_conv2d/depthwise", "op": "FusedDepthwiseConv2dNative", "input": ["StatefulPartitionedCall/sequential/hub_keras_layer_v1v2/StatefulPartitionedCall/efficientnet-lite4/model/blocks_17/Relu6", "StatefulPartitionedCall/sequential/hub_keras_layer_v1v2/StatefulPartitionedCall/efficientnet-lite4/model/blocks_17/depthwise_conv2d/depthwise_weights", "StatefulPartitionedCall/sequential/hub_keras_layer_v1v2/StatefulPartitionedCall/efficientnet-lite4/model/blocks_17/depthwise_conv2d/depthwise_bn_offset"], "attr": {"num_args": {"i": "1"}, "data_format": {"s": "TkhXQw=="}, "dilations": {"list": {"i": ["1", "1", "1", "1"]}}, "explicit_paddings": {"list": {}}, "fused_ops": {"list": {"s": ["Qmlhc0FkZA==", "UmVsdTY="]}}, "strides": {"list": {"i": ["1", "1", "1", "1"]}}, "padding": {"s": "U0FNRQ=="}, "T": {"type": "DT_FLOAT"}}}, {"name": "StatefulPartitionedCall/sequential/hub_keras_layer_v1v2/StatefulPartitionedCall/efficientnet-lite4/model/blocks_17/tpu_batch_normalization_2/FusedBatchNormV3", "op": "_FusedConv2D", "input": ["StatefulPartitionedCall/sequential/hub_keras_layer_v1v2/StatefulPartitionedCall/efficientnet-lite4/model/blocks_17/depthwise_conv2d/depthwise", "StatefulPartitionedCall/sequential/hub_keras_layer_v1v2/StatefulPartitionedCall/efficientnet-lite4/model/blocks_17/conv2d_1/Conv2D_weights", "StatefulPartitionedCall/sequential/hub_keras_layer_v1v2/StatefulPartitionedCall/efficientnet-lite4/model/blocks_17/conv2d_1/Conv2D_bn_offset"], "device": "/device:CPU:0", "attr": {"strides": {"list": {"i": ["1", "1", "1", "1"]}}, "fused_ops": {"list": {"s": ["Qmlhc0FkZA=="]}}, "use_cudnn_on_gpu": {"b": true}, "explicit_paddings": {"list": {}}, "data_format": {"s": "TkhXQw=="}, "num_args": {"i": "1"}, "T": {"type": "DT_FLOAT"}, "dilations": {"list": {"i": ["1", "1", "1", "1"]}}, "padding": {"s": "U0FNRQ=="}, "epsilon": {"f": 0.0}}}, {"name": "StatefulPartitionedCall/sequential/hub_keras_layer_v1v2/StatefulPartitionedCall/efficientnet-lite4/model/blocks_17/Add", "op": "Add", "input": ["StatefulPartitionedCall/sequential/hub_keras_layer_v1v2/StatefulPartitionedCall/efficientnet-lite4/model/blocks_17/tpu_batch_normalization_2/FusedBatchNormV3", "StatefulPartitionedCall/sequential/hub_keras_layer_v1v2/StatefulPartitionedCall/efficientnet-lite4/model/blocks_16/Add"], "attr": {"T": {"type": "DT_FLOAT"}}}, {"name": "StatefulPartitionedCall/sequential/hub_keras_layer_v1v2/StatefulPartitionedCall/efficientnet-lite4/model/blocks_18/Relu6", "op": "_FusedConv2D", "input": ["StatefulPartitionedCall/sequential/hub_keras_layer_v1v2/StatefulPartitionedCall/efficientnet-lite4/model/blocks_17/Add", "StatefulPartitionedCall/sequential/hub_keras_layer_v1v2/StatefulPartitionedCall/efficientnet-lite4/model/blocks_18/conv2d/Conv2D_weights", "StatefulPartitionedCall/sequential/hub_keras_layer_v1v2/StatefulPartitionedCall/efficientnet-lite4/model/blocks_18/conv2d/Conv2D_bn_offset"], "device": "/device:CPU:0", "attr": {"fused_ops": {"list": {"s": ["Qmlhc0FkZA==", "UmVsdTY="]}}, "explicit_paddings": {"list": {}}, "dilations": {"list": {"i": ["1", "1", "1", "1"]}}, "padding": {"s": "U0FNRQ=="}, "strides": {"list": {"i": ["1", "1", "1", "1"]}}, "use_cudnn_on_gpu": {"b": true}, "T": {"type": "DT_FLOAT"}, "num_args": {"i": "1"}, "epsilon": {"f": 0.0}, "data_format": {"s": "TkhXQw=="}}}, {"name": "StatefulPartitionedCall/sequential/hub_keras_layer_v1v2/StatefulPartitionedCall/efficientnet-lite4/model/blocks_18/depthwise_conv2d/depthwise", "op": "FusedDepthwiseConv2dNative", "input": ["StatefulPartitionedCall/sequential/hub_keras_layer_v1v2/StatefulPartitionedCall/efficientnet-lite4/model/blocks_18/Relu6", "StatefulPartitionedCall/sequential/hub_keras_layer_v1v2/StatefulPartitionedCall/efficientnet-lite4/model/blocks_18/depthwise_conv2d/depthwise_weights", "StatefulPartitionedCall/sequential/hub_keras_layer_v1v2/StatefulPartitionedCall/efficientnet-lite4/model/blocks_18/depthwise_conv2d/depthwise_bn_offset"], "attr": {"padding": {"s": "U0FNRQ=="}, "strides": {"list": {"i": ["1", "1", "1", "1"]}}, "num_args": {"i": "1"}, "fused_ops": {"list": {"s": ["Qmlhc0FkZA==", "UmVsdTY="]}}, "explicit_paddings": {"list": {}}, "dilations": {"list": {"i": ["1", "1", "1", "1"]}}, "data_format": {"s": "TkhXQw=="}, "T": {"type": "DT_FLOAT"}}}, {"name": "StatefulPartitionedCall/sequential/hub_keras_layer_v1v2/StatefulPartitionedCall/efficientnet-lite4/model/blocks_18/tpu_batch_normalization_2/FusedBatchNormV3", "op": "_FusedConv2D", "input": ["StatefulPartitionedCall/sequential/hub_keras_layer_v1v2/StatefulPartitionedCall/efficientnet-lite4/model/blocks_18/depthwise_conv2d/depthwise", "StatefulPartitionedCall/sequential/hub_keras_layer_v1v2/StatefulPartitionedCall/efficientnet-lite4/model/blocks_18/conv2d_1/Conv2D_weights", "StatefulPartitionedCall/sequential/hub_keras_layer_v1v2/StatefulPartitionedCall/efficientnet-lite4/model/blocks_18/conv2d_1/Conv2D_bn_offset"], "device": "/device:CPU:0", "attr": {"num_args": {"i": "1"}, "padding": {"s": "U0FNRQ=="}, "explicit_paddings": {"list": {}}, "dilations": {"list": {"i": ["1", "1", "1", "1"]}}, "data_format": {"s": "TkhXQw=="}, "T": {"type": "DT_FLOAT"}, "strides": {"list": {"i": ["1", "1", "1", "1"]}}, "use_cudnn_on_gpu": {"b": true}, "fused_ops": {"list": {"s": ["Qmlhc0FkZA=="]}}, "epsilon": {"f": 0.0}}}, {"name": "StatefulPartitionedCall/sequential/hub_keras_layer_v1v2/StatefulPartitionedCall/efficientnet-lite4/model/blocks_18/Add", "op": "Add", "input": ["StatefulPartitionedCall/sequential/hub_keras_layer_v1v2/StatefulPartitionedCall/efficientnet-lite4/model/blocks_18/tpu_batch_normalization_2/FusedBatchNormV3", "StatefulPartitionedCall/sequential/hub_keras_layer_v1v2/StatefulPartitionedCall/efficientnet-lite4/model/blocks_17/Add"], "attr": {"T": {"type": "DT_FLOAT"}}}, {"name": "StatefulPartitionedCall/sequential/hub_keras_layer_v1v2/StatefulPartitionedCall/efficientnet-lite4/model/blocks_19/Relu6", "op": "_FusedConv2D", "input": ["StatefulPartitionedCall/sequential/hub_keras_layer_v1v2/StatefulPartitionedCall/efficientnet-lite4/model/blocks_18/Add", "StatefulPartitionedCall/sequential/hub_keras_layer_v1v2/StatefulPartitionedCall/efficientnet-lite4/model/blocks_19/conv2d/Conv2D_weights", "StatefulPartitionedCall/sequential/hub_keras_layer_v1v2/StatefulPartitionedCall/efficientnet-lite4/model/blocks_19/conv2d/Conv2D_bn_offset"], "device": "/device:CPU:0", "attr": {"use_cudnn_on_gpu": {"b": true}, "data_format": {"s": "TkhXQw=="}, "T": {"type": "DT_FLOAT"}, "fused_ops": {"list": {"s": ["Qmlhc0FkZA==", "UmVsdTY="]}}, "strides": {"list": {"i": ["1", "1", "1", "1"]}}, "padding": {"s": "U0FNRQ=="}, "dilations": {"list": {"i": ["1", "1", "1", "1"]}}, "epsilon": {"f": 0.0}, "explicit_paddings": {"list": {}}, "num_args": {"i": "1"}}}, {"name": "StatefulPartitionedCall/sequential/hub_keras_layer_v1v2/StatefulPartitionedCall/efficientnet-lite4/model/blocks_19/depthwise_conv2d/depthwise", "op": "FusedDepthwiseConv2dNative", "input": ["StatefulPartitionedCall/sequential/hub_keras_layer_v1v2/StatefulPartitionedCall/efficientnet-lite4/model/blocks_19/Relu6", "StatefulPartitionedCall/sequential/hub_keras_layer_v1v2/StatefulPartitionedCall/efficientnet-lite4/model/blocks_19/depthwise_conv2d/depthwise_weights", "StatefulPartitionedCall/sequential/hub_keras_layer_v1v2/StatefulPartitionedCall/efficientnet-lite4/model/blocks_19/depthwise_conv2d/depthwise_bn_offset"], "attr": {"strides": {"list": {"i": ["1", "1", "1", "1"]}}, "num_args": {"i": "1"}, "data_format": {"s": "TkhXQw=="}, "padding": {"s": "U0FNRQ=="}, "dilations": {"list": {"i": ["1", "1", "1", "1"]}}, "explicit_paddings": {"list": {}}, "fused_ops": {"list": {"s": ["Qmlhc0FkZA==", "UmVsdTY="]}}, "T": {"type": "DT_FLOAT"}}}, {"name": "StatefulPartitionedCall/sequential/hub_keras_layer_v1v2/StatefulPartitionedCall/efficientnet-lite4/model/blocks_19/tpu_batch_normalization_2/FusedBatchNormV3", "op": "_FusedConv2D", "input": ["StatefulPartitionedCall/sequential/hub_keras_layer_v1v2/StatefulPartitionedCall/efficientnet-lite4/model/blocks_19/depthwise_conv2d/depthwise", "StatefulPartitionedCall/sequential/hub_keras_layer_v1v2/StatefulPartitionedCall/efficientnet-lite4/model/blocks_19/conv2d_1/Conv2D_weights", "StatefulPartitionedCall/sequential/hub_keras_layer_v1v2/StatefulPartitionedCall/efficientnet-lite4/model/blocks_19/conv2d_1/Conv2D_bn_offset"], "device": "/device:CPU:0", "attr": {"explicit_paddings": {"list": {}}, "padding": {"s": "U0FNRQ=="}, "strides": {"list": {"i": ["1", "1", "1", "1"]}}, "dilations": {"list": {"i": ["1", "1", "1", "1"]}}, "data_format": {"s": "TkhXQw=="}, "T": {"type": "DT_FLOAT"}, "epsilon": {"f": 0.0}, "use_cudnn_on_gpu": {"b": true}, "num_args": {"i": "1"}, "fused_ops": {"list": {"s": ["Qmlhc0FkZA=="]}}}}, {"name": "StatefulPartitionedCall/sequential/hub_keras_layer_v1v2/StatefulPartitionedCall/efficientnet-lite4/model/blocks_19/Add", "op": "Add", "input": ["StatefulPartitionedCall/sequential/hub_keras_layer_v1v2/StatefulPartitionedCall/efficientnet-lite4/model/blocks_19/tpu_batch_normalization_2/FusedBatchNormV3", "StatefulPartitionedCall/sequential/hub_keras_layer_v1v2/StatefulPartitionedCall/efficientnet-lite4/model/blocks_18/Add"], "attr": {"T": {"type": "DT_FLOAT"}}}, {"name": "StatefulPartitionedCall/sequential/hub_keras_layer_v1v2/StatefulPartitionedCall/efficientnet-lite4/model/blocks_20/Relu6", "op": "_FusedConv2D", "input": ["StatefulPartitionedCall/sequential/hub_keras_layer_v1v2/StatefulPartitionedCall/efficientnet-lite4/model/blocks_19/Add", "StatefulPartitionedCall/sequential/hub_keras_layer_v1v2/StatefulPartitionedCall/efficientnet-lite4/model/blocks_20/conv2d/Conv2D_weights", "StatefulPartitionedCall/sequential/hub_keras_layer_v1v2/StatefulPartitionedCall/efficientnet-lite4/model/blocks_20/conv2d/Conv2D_bn_offset"], "device": "/device:CPU:0", "attr": {"use_cudnn_on_gpu": {"b": true}, "padding": {"s": "U0FNRQ=="}, "epsilon": {"f": 0.0}, "explicit_paddings": {"list": {}}, "strides": {"list": {"i": ["1", "1", "1", "1"]}}, "dilations": {"list": {"i": ["1", "1", "1", "1"]}}, "data_format": {"s": "TkhXQw=="}, "fused_ops": {"list": {"s": ["Qmlhc0FkZA==", "UmVsdTY="]}}, "T": {"type": "DT_FLOAT"}, "num_args": {"i": "1"}}}, {"name": "StatefulPartitionedCall/sequential/hub_keras_layer_v1v2/StatefulPartitionedCall/efficientnet-lite4/model/blocks_20/depthwise_conv2d/depthwise", "op": "FusedDepthwiseConv2dNative", "input": ["StatefulPartitionedCall/sequential/hub_keras_layer_v1v2/StatefulPartitionedCall/efficientnet-lite4/model/blocks_20/Relu6", "StatefulPartitionedCall/sequential/hub_keras_layer_v1v2/StatefulPartitionedCall/efficientnet-lite4/model/blocks_20/depthwise_conv2d/depthwise_weights", "StatefulPartitionedCall/sequential/hub_keras_layer_v1v2/StatefulPartitionedCall/efficientnet-lite4/model/blocks_20/depthwise_conv2d/depthwise_bn_offset"], "attr": {"fused_ops": {"list": {"s": ["Qmlhc0FkZA==", "UmVsdTY="]}}, "data_format": {"s": "TkhXQw=="}, "dilations": {"list": {"i": ["1", "1", "1", "1"]}}, "T": {"type": "DT_FLOAT"}, "explicit_paddings": {"list": {}}, "padding": {"s": "U0FNRQ=="}, "num_args": {"i": "1"}, "strides": {"list": {"i": ["1", "1", "1", "1"]}}}}, {"name": "StatefulPartitionedCall/sequential/hub_keras_layer_v1v2/StatefulPartitionedCall/efficientnet-lite4/model/blocks_20/tpu_batch_normalization_2/FusedBatchNormV3", "op": "_FusedConv2D", "input": ["StatefulPartitionedCall/sequential/hub_keras_layer_v1v2/StatefulPartitionedCall/efficientnet-lite4/model/blocks_20/depthwise_conv2d/depthwise", "StatefulPartitionedCall/sequential/hub_keras_layer_v1v2/StatefulPartitionedCall/efficientnet-lite4/model/blocks_20/conv2d_1/Conv2D_weights", "StatefulPartitionedCall/sequential/hub_keras_layer_v1v2/StatefulPartitionedCall/efficientnet-lite4/model/blocks_20/conv2d_1/Conv2D_bn_offset"], "device": "/device:CPU:0", "attr": {"data_format": {"s": "TkhXQw=="}, "use_cudnn_on_gpu": {"b": true}, "fused_ops": {"list": {"s": ["Qmlhc0FkZA=="]}}, "T": {"type": "DT_FLOAT"}, "num_args": {"i": "1"}, "dilations": {"list": {"i": ["1", "1", "1", "1"]}}, "epsilon": {"f": 0.0}, "padding": {"s": "U0FNRQ=="}, "explicit_paddings": {"list": {}}, "strides": {"list": {"i": ["1", "1", "1", "1"]}}}}, {"name": "StatefulPartitionedCall/sequential/hub_keras_layer_v1v2/StatefulPartitionedCall/efficientnet-lite4/model/blocks_20/Add", "op": "Add", "input": ["StatefulPartitionedCall/sequential/hub_keras_layer_v1v2/StatefulPartitionedCall/efficientnet-lite4/model/blocks_20/tpu_batch_normalization_2/FusedBatchNormV3", "StatefulPartitionedCall/sequential/hub_keras_layer_v1v2/StatefulPartitionedCall/efficientnet-lite4/model/blocks_19/Add"], "attr": {"T": {"type": "DT_FLOAT"}}}, {"name": "StatefulPartitionedCall/sequential/hub_keras_layer_v1v2/StatefulPartitionedCall/efficientnet-lite4/model/blocks_21/Relu6", "op": "_FusedConv2D", "input": ["StatefulPartitionedCall/sequential/hub_keras_layer_v1v2/StatefulPartitionedCall/efficientnet-lite4/model/blocks_20/Add", "StatefulPartitionedCall/sequential/hub_keras_layer_v1v2/StatefulPartitionedCall/efficientnet-lite4/model/blocks_21/conv2d/Conv2D_weights", "StatefulPartitionedCall/sequential/hub_keras_layer_v1v2/StatefulPartitionedCall/efficientnet-lite4/model/blocks_21/conv2d/Conv2D_bn_offset"], "device": "/device:CPU:0", "attr": {"epsilon": {"f": 0.0}, "fused_ops": {"list": {"s": ["Qmlhc0FkZA==", "UmVsdTY="]}}, "num_args": {"i": "1"}, "use_cudnn_on_gpu": {"b": true}, "strides": {"list": {"i": ["1", "1", "1", "1"]}}, "dilations": {"list": {"i": ["1", "1", "1", "1"]}}, "T": {"type": "DT_FLOAT"}, "padding": {"s": "U0FNRQ=="}, "explicit_paddings": {"list": {}}, "data_format": {"s": "TkhXQw=="}}}, {"name": "StatefulPartitionedCall/sequential/hub_keras_layer_v1v2/StatefulPartitionedCall/efficientnet-lite4/model/blocks_21/depthwise_conv2d/depthwise", "op": "FusedDepthwiseConv2dNative", "input": ["StatefulPartitionedCall/sequential/hub_keras_layer_v1v2/StatefulPartitionedCall/efficientnet-lite4/model/blocks_21/Relu6", "StatefulPartitionedCall/sequential/hub_keras_layer_v1v2/StatefulPartitionedCall/efficientnet-lite4/model/blocks_21/depthwise_conv2d/depthwise_weights", "StatefulPartitionedCall/sequential/hub_keras_layer_v1v2/StatefulPartitionedCall/efficientnet-lite4/model/blocks_21/depthwise_conv2d/depthwise_bn_offset"], "attr": {"data_format": {"s": "TkhXQw=="}, "fused_ops": {"list": {"s": ["Qmlhc0FkZA==", "UmVsdTY="]}}, "strides": {"list": {"i": ["1", "2", "2", "1"]}}, "explicit_paddings": {"list": {}}, "padding": {"s": "U0FNRQ=="}, "dilations": {"list": {"i": ["1", "1", "1", "1"]}}, "T": {"type": "DT_FLOAT"}, "num_args": {"i": "1"}}}, {"name": "StatefulPartitionedCall/sequential/hub_keras_layer_v1v2/StatefulPartitionedCall/efficientnet-lite4/model/blocks_21/tpu_batch_normalization_2/FusedBatchNormV3", "op": "_FusedConv2D", "input": ["StatefulPartitionedCall/sequential/hub_keras_layer_v1v2/StatefulPartitionedCall/efficientnet-lite4/model/blocks_21/depthwise_conv2d/depthwise", "StatefulPartitionedCall/sequential/hub_keras_layer_v1v2/StatefulPartitionedCall/efficientnet-lite4/model/blocks_21/conv2d_1/Conv2D_weights", "StatefulPartitionedCall/sequential/hub_keras_layer_v1v2/StatefulPartitionedCall/efficientnet-lite4/model/blocks_21/conv2d_1/Conv2D_bn_offset"], "device": "/device:CPU:0", "attr": {"dilations": {"list": {"i": ["1", "1", "1", "1"]}}, "strides": {"list": {"i": ["1", "1", "1", "1"]}}, "fused_ops": {"list": {"s": ["Qmlhc0FkZA=="]}}, "epsilon": {"f": 0.0}, "num_args": {"i": "1"}, "T": {"type": "DT_FLOAT"}, "padding": {"s": "U0FNRQ=="}, "explicit_paddings": {"list": {}}, "data_format": {"s": "TkhXQw=="}, "use_cudnn_on_gpu": {"b": true}}}, {"name": "StatefulPartitionedCall/sequential/hub_keras_layer_v1v2/StatefulPartitionedCall/efficientnet-lite4/model/blocks_22/Relu6", "op": "_FusedConv2D", "input": ["StatefulPartitionedCall/sequential/hub_keras_layer_v1v2/StatefulPartitionedCall/efficientnet-lite4/model/blocks_21/tpu_batch_normalization_2/FusedBatchNormV3", "StatefulPartitionedCall/sequential/hub_keras_layer_v1v2/StatefulPartitionedCall/efficientnet-lite4/model/blocks_22/conv2d/Conv2D_weights", "StatefulPartitionedCall/sequential/hub_keras_layer_v1v2/StatefulPartitionedCall/efficientnet-lite4/model/blocks_22/conv2d/Conv2D_bn_offset"], "device": "/device:CPU:0", "attr": {"explicit_paddings": {"list": {}}, "epsilon": {"f": 0.0}, "num_args": {"i": "1"}, "padding": {"s": "U0FNRQ=="}, "T": {"type": "DT_FLOAT"}, "dilations": {"list": {"i": ["1", "1", "1", "1"]}}, "data_format": {"s": "TkhXQw=="}, "strides": {"list": {"i": ["1", "1", "1", "1"]}}, "fused_ops": {"list": {"s": ["Qmlhc0FkZA==", "UmVsdTY="]}}, "use_cudnn_on_gpu": {"b": true}}}, {"name": "StatefulPartitionedCall/sequential/hub_keras_layer_v1v2/StatefulPartitionedCall/efficientnet-lite4/model/blocks_22/depthwise_conv2d/depthwise", "op": "FusedDepthwiseConv2dNative", "input": ["StatefulPartitionedCall/sequential/hub_keras_layer_v1v2/StatefulPartitionedCall/efficientnet-lite4/model/blocks_22/Relu6", "StatefulPartitionedCall/sequential/hub_keras_layer_v1v2/StatefulPartitionedCall/efficientnet-lite4/model/blocks_22/depthwise_conv2d/depthwise_weights", "StatefulPartitionedCall/sequential/hub_keras_layer_v1v2/StatefulPartitionedCall/efficientnet-lite4/model/blocks_22/depthwise_conv2d/depthwise_bn_offset"], "attr": {"explicit_paddings": {"list": {}}, "strides": {"list": {"i": ["1", "1", "1", "1"]}}, "T": {"type": "DT_FLOAT"}, "data_format": {"s": "TkhXQw=="}, "fused_ops": {"list": {"s": ["Qmlhc0FkZA==", "UmVsdTY="]}}, "dilations": {"list": {"i": ["1", "1", "1", "1"]}}, "padding": {"s": "U0FNRQ=="}, "num_args": {"i": "1"}}}, {"name": "StatefulPartitionedCall/sequential/hub_keras_layer_v1v2/StatefulPartitionedCall/efficientnet-lite4/model/blocks_22/tpu_batch_normalization_2/FusedBatchNormV3", "op": "_FusedConv2D", "input": ["StatefulPartitionedCall/sequential/hub_keras_layer_v1v2/StatefulPartitionedCall/efficientnet-lite4/model/blocks_22/depthwise_conv2d/depthwise", "StatefulPartitionedCall/sequential/hub_keras_layer_v1v2/StatefulPartitionedCall/efficientnet-lite4/model/blocks_22/conv2d_1/Conv2D_weights", "StatefulPartitionedCall/sequential/hub_keras_layer_v1v2/StatefulPartitionedCall/efficientnet-lite4/model/blocks_22/conv2d_1/Conv2D_bn_offset"], "device": "/device:CPU:0", "attr": {"explicit_paddings": {"list": {}}, "num_args": {"i": "1"}, "data_format": {"s": "TkhXQw=="}, "dilations": {"list": {"i": ["1", "1", "1", "1"]}}, "strides": {"list": {"i": ["1", "1", "1", "1"]}}, "padding": {"s": "U0FNRQ=="}, "fused_ops": {"list": {"s": ["Qmlhc0FkZA=="]}}, "use_cudnn_on_gpu": {"b": true}, "epsilon": {"f": 0.0}, "T": {"type": "DT_FLOAT"}}}, {"name": "StatefulPartitionedCall/sequential/hub_keras_layer_v1v2/StatefulPartitionedCall/efficientnet-lite4/model/blocks_22/Add", "op": "Add", "input": ["StatefulPartitionedCall/sequential/hub_keras_layer_v1v2/StatefulPartitionedCall/efficientnet-lite4/model/blocks_22/tpu_batch_normalization_2/FusedBatchNormV3", "StatefulPartitionedCall/sequential/hub_keras_layer_v1v2/StatefulPartitionedCall/efficientnet-lite4/model/blocks_21/tpu_batch_normalization_2/FusedBatchNormV3"], "attr": {"T": {"type": "DT_FLOAT"}}}, {"name": "StatefulPartitionedCall/sequential/hub_keras_layer_v1v2/StatefulPartitionedCall/efficientnet-lite4/model/blocks_23/Relu6", "op": "_FusedConv2D", "input": ["StatefulPartitionedCall/sequential/hub_keras_layer_v1v2/StatefulPartitionedCall/efficientnet-lite4/model/blocks_22/Add", "StatefulPartitionedCall/sequential/hub_keras_layer_v1v2/StatefulPartitionedCall/efficientnet-lite4/model/blocks_23/conv2d/Conv2D_weights", "StatefulPartitionedCall/sequential/hub_keras_layer_v1v2/StatefulPartitionedCall/efficientnet-lite4/model/blocks_23/conv2d/Conv2D_bn_offset"], "device": "/device:CPU:0", "attr": {"padding": {"s": "U0FNRQ=="}, "dilations": {"list": {"i": ["1", "1", "1", "1"]}}, "fused_ops": {"list": {"s": ["Qmlhc0FkZA==", "UmVsdTY="]}}, "epsilon": {"f": 0.0}, "explicit_paddings": {"list": {}}, "use_cudnn_on_gpu": {"b": true}, "strides": {"list": {"i": ["1", "1", "1", "1"]}}, "data_format": {"s": "TkhXQw=="}, "num_args": {"i": "1"}, "T": {"type": "DT_FLOAT"}}}, {"name": "StatefulPartitionedCall/sequential/hub_keras_layer_v1v2/StatefulPartitionedCall/efficientnet-lite4/model/blocks_23/depthwise_conv2d/depthwise", "op": "FusedDepthwiseConv2dNative", "input": ["StatefulPartitionedCall/sequential/hub_keras_layer_v1v2/StatefulPartitionedCall/efficientnet-lite4/model/blocks_23/Relu6", "StatefulPartitionedCall/sequential/hub_keras_layer_v1v2/StatefulPartitionedCall/efficientnet-lite4/model/blocks_23/depthwise_conv2d/depthwise_weights", "StatefulPartitionedCall/sequential/hub_keras_layer_v1v2/StatefulPartitionedCall/efficientnet-lite4/model/blocks_23/depthwise_conv2d/depthwise_bn_offset"], "attr": {"num_args": {"i": "1"}, "dilations": {"list": {"i": ["1", "1", "1", "1"]}}, "T": {"type": "DT_FLOAT"}, "explicit_paddings": {"list": {}}, "padding": {"s": "U0FNRQ=="}, "strides": {"list": {"i": ["1", "1", "1", "1"]}}, "fused_ops": {"list": {"s": ["Qmlhc0FkZA==", "UmVsdTY="]}}, "data_format": {"s": "TkhXQw=="}}}, {"name": "StatefulPartitionedCall/sequential/hub_keras_layer_v1v2/StatefulPartitionedCall/efficientnet-lite4/model/blocks_23/tpu_batch_normalization_2/FusedBatchNormV3", "op": "_FusedConv2D", "input": ["StatefulPartitionedCall/sequential/hub_keras_layer_v1v2/StatefulPartitionedCall/efficientnet-lite4/model/blocks_23/depthwise_conv2d/depthwise", "StatefulPartitionedCall/sequential/hub_keras_layer_v1v2/StatefulPartitionedCall/efficientnet-lite4/model/blocks_23/conv2d_1/Conv2D_weights", "StatefulPartitionedCall/sequential/hub_keras_layer_v1v2/StatefulPartitionedCall/efficientnet-lite4/model/blocks_23/conv2d_1/Conv2D_bn_offset"], "device": "/device:CPU:0", "attr": {"T": {"type": "DT_FLOAT"}, "strides": {"list": {"i": ["1", "1", "1", "1"]}}, "explicit_paddings": {"list": {}}, "use_cudnn_on_gpu": {"b": true}, "num_args": {"i": "1"}, "fused_ops": {"list": {"s": ["Qmlhc0FkZA=="]}}, "dilations": {"list": {"i": ["1", "1", "1", "1"]}}, "padding": {"s": "U0FNRQ=="}, "data_format": {"s": "TkhXQw=="}, "epsilon": {"f": 0.0}}}, {"name": "StatefulPartitionedCall/sequential/hub_keras_layer_v1v2/StatefulPartitionedCall/efficientnet-lite4/model/blocks_23/Add", "op": "Add", "input": ["StatefulPartitionedCall/sequential/hub_keras_layer_v1v2/StatefulPartitionedCall/efficientnet-lite4/model/blocks_23/tpu_batch_normalization_2/FusedBatchNormV3", "StatefulPartitionedCall/sequential/hub_keras_layer_v1v2/StatefulPartitionedCall/efficientnet-lite4/model/blocks_22/Add"], "attr": {"T": {"type": "DT_FLOAT"}}}, {"name": "StatefulPartitionedCall/sequential/hub_keras_layer_v1v2/StatefulPartitionedCall/efficientnet-lite4/model/blocks_24/Relu6", "op": "_FusedConv2D", "input": ["StatefulPartitionedCall/sequential/hub_keras_layer_v1v2/StatefulPartitionedCall/efficientnet-lite4/model/blocks_23/Add", "StatefulPartitionedCall/sequential/hub_keras_layer_v1v2/StatefulPartitionedCall/efficientnet-lite4/model/blocks_24/conv2d/Conv2D_weights", "StatefulPartitionedCall/sequential/hub_keras_layer_v1v2/StatefulPartitionedCall/efficientnet-lite4/model/blocks_24/conv2d/Conv2D_bn_offset"], "device": "/device:CPU:0", "attr": {"T": {"type": "DT_FLOAT"}, "data_format": {"s": "TkhXQw=="}, "padding": {"s": "U0FNRQ=="}, "use_cudnn_on_gpu": {"b": true}, "fused_ops": {"list": {"s": ["Qmlhc0FkZA==", "UmVsdTY="]}}, "num_args": {"i": "1"}, "strides": {"list": {"i": ["1", "1", "1", "1"]}}, "dilations": {"list": {"i": ["1", "1", "1", "1"]}}, "epsilon": {"f": 0.0}, "explicit_paddings": {"list": {}}}}, {"name": "StatefulPartitionedCall/sequential/hub_keras_layer_v1v2/StatefulPartitionedCall/efficientnet-lite4/model/blocks_24/depthwise_conv2d/depthwise", "op": "FusedDepthwiseConv2dNative", "input": ["StatefulPartitionedCall/sequential/hub_keras_layer_v1v2/StatefulPartitionedCall/efficientnet-lite4/model/blocks_24/Relu6", "StatefulPartitionedCall/sequential/hub_keras_layer_v1v2/StatefulPartitionedCall/efficientnet-lite4/model/blocks_24/depthwise_conv2d/depthwise_weights", "StatefulPartitionedCall/sequential/hub_keras_layer_v1v2/StatefulPartitionedCall/efficientnet-lite4/model/blocks_24/depthwise_conv2d/depthwise_bn_offset"], "attr": {"fused_ops": {"list": {"s": ["Qmlhc0FkZA==", "UmVsdTY="]}}, "strides": {"list": {"i": ["1", "1", "1", "1"]}}, "data_format": {"s": "TkhXQw=="}, "explicit_paddings": {"list": {}}, "num_args": {"i": "1"}, "dilations": {"list": {"i": ["1", "1", "1", "1"]}}, "T": {"type": "DT_FLOAT"}, "padding": {"s": "U0FNRQ=="}}}, {"name": "StatefulPartitionedCall/sequential/hub_keras_layer_v1v2/StatefulPartitionedCall/efficientnet-lite4/model/blocks_24/tpu_batch_normalization_2/FusedBatchNormV3", "op": "_FusedConv2D", "input": ["StatefulPartitionedCall/sequential/hub_keras_layer_v1v2/StatefulPartitionedCall/efficientnet-lite4/model/blocks_24/depthwise_conv2d/depthwise", "StatefulPartitionedCall/sequential/hub_keras_layer_v1v2/StatefulPartitionedCall/efficientnet-lite4/model/blocks_24/conv2d_1/Conv2D_weights", "StatefulPartitionedCall/sequential/hub_keras_layer_v1v2/StatefulPartitionedCall/efficientnet-lite4/model/blocks_24/conv2d_1/Conv2D_bn_offset"], "device": "/device:CPU:0", "attr": {"explicit_paddings": {"list": {}}, "fused_ops": {"list": {"s": ["Qmlhc0FkZA=="]}}, "T": {"type": "DT_FLOAT"}, "data_format": {"s": "TkhXQw=="}, "use_cudnn_on_gpu": {"b": true}, "strides": {"list": {"i": ["1", "1", "1", "1"]}}, "dilations": {"list": {"i": ["1", "1", "1", "1"]}}, "epsilon": {"f": 0.0}, "num_args": {"i": "1"}, "padding": {"s": "U0FNRQ=="}}}, {"name": "StatefulPartitionedCall/sequential/hub_keras_layer_v1v2/StatefulPartitionedCall/efficientnet-lite4/model/blocks_24/Add", "op": "Add", "input": ["StatefulPartitionedCall/sequential/hub_keras_layer_v1v2/StatefulPartitionedCall/efficientnet-lite4/model/blocks_24/tpu_batch_normalization_2/FusedBatchNormV3", "StatefulPartitionedCall/sequential/hub_keras_layer_v1v2/StatefulPartitionedCall/efficientnet-lite4/model/blocks_23/Add"], "attr": {"T": {"type": "DT_FLOAT"}}}, {"name": "StatefulPartitionedCall/sequential/hub_keras_layer_v1v2/StatefulPartitionedCall/efficientnet-lite4/model/blocks_25/Relu6", "op": "_FusedConv2D", "input": ["StatefulPartitionedCall/sequential/hub_keras_layer_v1v2/StatefulPartitionedCall/efficientnet-lite4/model/blocks_24/Add", "StatefulPartitionedCall/sequential/hub_keras_layer_v1v2/StatefulPartitionedCall/efficientnet-lite4/model/blocks_25/conv2d/Conv2D_weights", "StatefulPartitionedCall/sequential/hub_keras_layer_v1v2/StatefulPartitionedCall/efficientnet-lite4/model/blocks_25/conv2d/Conv2D_bn_offset"], "device": "/device:CPU:0", "attr": {"dilations": {"list": {"i": ["1", "1", "1", "1"]}}, "padding": {"s": "U0FNRQ=="}, "explicit_paddings": {"list": {}}, "use_cudnn_on_gpu": {"b": true}, "fused_ops": {"list": {"s": ["Qmlhc0FkZA==", "UmVsdTY="]}}, "data_format": {"s": "TkhXQw=="}, "strides": {"list": {"i": ["1", "1", "1", "1"]}}, "num_args": {"i": "1"}, "epsilon": {"f": 0.0}, "T": {"type": "DT_FLOAT"}}}, {"name": "StatefulPartitionedCall/sequential/hub_keras_layer_v1v2/StatefulPartitionedCall/efficientnet-lite4/model/blocks_25/depthwise_conv2d/depthwise", "op": "FusedDepthwiseConv2dNative", "input": ["StatefulPartitionedCall/sequential/hub_keras_layer_v1v2/StatefulPartitionedCall/efficientnet-lite4/model/blocks_25/Relu6", "StatefulPartitionedCall/sequential/hub_keras_layer_v1v2/StatefulPartitionedCall/efficientnet-lite4/model/blocks_25/depthwise_conv2d/depthwise_weights", "StatefulPartitionedCall/sequential/hub_keras_layer_v1v2/StatefulPartitionedCall/efficientnet-lite4/model/blocks_25/depthwise_conv2d/depthwise_bn_offset"], "attr": {"T": {"type": "DT_FLOAT"}, "padding": {"s": "U0FNRQ=="}, "dilations": {"list": {"i": ["1", "1", "1", "1"]}}, "fused_ops": {"list": {"s": ["Qmlhc0FkZA==", "UmVsdTY="]}}, "strides": {"list": {"i": ["1", "1", "1", "1"]}}, "explicit_paddings": {"list": {}}, "num_args": {"i": "1"}, "data_format": {"s": "TkhXQw=="}}}, {"name": "StatefulPartitionedCall/sequential/hub_keras_layer_v1v2/StatefulPartitionedCall/efficientnet-lite4/model/blocks_25/tpu_batch_normalization_2/FusedBatchNormV3", "op": "_FusedConv2D", "input": ["StatefulPartitionedCall/sequential/hub_keras_layer_v1v2/StatefulPartitionedCall/efficientnet-lite4/model/blocks_25/depthwise_conv2d/depthwise", "StatefulPartitionedCall/sequential/hub_keras_layer_v1v2/StatefulPartitionedCall/efficientnet-lite4/model/blocks_25/conv2d_1/Conv2D_weights", "StatefulPartitionedCall/sequential/hub_keras_layer_v1v2/StatefulPartitionedCall/efficientnet-lite4/model/blocks_25/conv2d_1/Conv2D_bn_offset"], "device": "/device:CPU:0", "attr": {"dilations": {"list": {"i": ["1", "1", "1", "1"]}}, "data_format": {"s": "TkhXQw=="}, "explicit_paddings": {"list": {}}, "fused_ops": {"list": {"s": ["Qmlhc0FkZA=="]}}, "use_cudnn_on_gpu": {"b": true}, "T": {"type": "DT_FLOAT"}, "padding": {"s": "U0FNRQ=="}, "strides": {"list": {"i": ["1", "1", "1", "1"]}}, "num_args": {"i": "1"}, "epsilon": {"f": 0.0}}}, {"name": "StatefulPartitionedCall/sequential/hub_keras_layer_v1v2/StatefulPartitionedCall/efficientnet-lite4/model/blocks_25/Add", "op": "Add", "input": ["StatefulPartitionedCall/sequential/hub_keras_layer_v1v2/StatefulPartitionedCall/efficientnet-lite4/model/blocks_25/tpu_batch_normalization_2/FusedBatchNormV3", "StatefulPartitionedCall/sequential/hub_keras_layer_v1v2/StatefulPartitionedCall/efficientnet-lite4/model/blocks_24/Add"], "attr": {"T": {"type": "DT_FLOAT"}}}, {"name": "StatefulPartitionedCall/sequential/hub_keras_layer_v1v2/StatefulPartitionedCall/efficientnet-lite4/model/blocks_26/Relu6", "op": "_FusedConv2D", "input": ["StatefulPartitionedCall/sequential/hub_keras_layer_v1v2/StatefulPartitionedCall/efficientnet-lite4/model/blocks_25/Add", "StatefulPartitionedCall/sequential/hub_keras_layer_v1v2/StatefulPartitionedCall/efficientnet-lite4/model/blocks_26/conv2d/Conv2D_weights", "StatefulPartitionedCall/sequential/hub_keras_layer_v1v2/StatefulPartitionedCall/efficientnet-lite4/model/blocks_26/conv2d/Conv2D_bn_offset"], "device": "/device:CPU:0", "attr": {"dilations": {"list": {"i": ["1", "1", "1", "1"]}}, "use_cudnn_on_gpu": {"b": true}, "data_format": {"s": "TkhXQw=="}, "fused_ops": {"list": {"s": ["Qmlhc0FkZA==", "UmVsdTY="]}}, "strides": {"list": {"i": ["1", "1", "1", "1"]}}, "num_args": {"i": "1"}, "T": {"type": "DT_FLOAT"}, "explicit_paddings": {"list": {}}, "padding": {"s": "U0FNRQ=="}, "epsilon": {"f": 0.0}}}, {"name": "StatefulPartitionedCall/sequential/hub_keras_layer_v1v2/StatefulPartitionedCall/efficientnet-lite4/model/blocks_26/depthwise_conv2d/depthwise", "op": "FusedDepthwiseConv2dNative", "input": ["StatefulPartitionedCall/sequential/hub_keras_layer_v1v2/StatefulPartitionedCall/efficientnet-lite4/model/blocks_26/Relu6", "StatefulPartitionedCall/sequential/hub_keras_layer_v1v2/StatefulPartitionedCall/efficientnet-lite4/model/blocks_26/depthwise_conv2d/depthwise_weights", "StatefulPartitionedCall/sequential/hub_keras_layer_v1v2/StatefulPartitionedCall/efficientnet-lite4/model/blocks_26/depthwise_conv2d/depthwise_bn_offset"], "attr": {"fused_ops": {"list": {"s": ["Qmlhc0FkZA==", "UmVsdTY="]}}, "data_format": {"s": "TkhXQw=="}, "strides": {"list": {"i": ["1", "1", "1", "1"]}}, "num_args": {"i": "1"}, "explicit_paddings": {"list": {}}, "dilations": {"list": {"i": ["1", "1", "1", "1"]}}, "T": {"type": "DT_FLOAT"}, "padding": {"s": "U0FNRQ=="}}}, {"name": "StatefulPartitionedCall/sequential/hub_keras_layer_v1v2/StatefulPartitionedCall/efficientnet-lite4/model/blocks_26/tpu_batch_normalization_2/FusedBatchNormV3", "op": "_FusedConv2D", "input": ["StatefulPartitionedCall/sequential/hub_keras_layer_v1v2/StatefulPartitionedCall/efficientnet-lite4/model/blocks_26/depthwi…
 "dilations": {"list": {"i": ["1", "1", "1", "1"]}}, "strides": {"list": {"i": ["1", "1", "1", "1"]}}, "explicit_paddings": {"list": {}}, "data_format": {"s": "TkhXQw=="}, "epsilon": {"f": 0.0}, "use_cudnn_on_gpu": {"b": true}, "fused_ops": {"list": {"s": ["Qmlhc0FkZA=="]}}, "padding": {"s": "U0FNRQ=="}, "T": {"type": "DT_FLOAT"}}}, {"name": "StatefulPartitionedCall/sequential/hub_keras_layer_v1v2/StatefulPartitionedCall/efficientnet-lite4/model/blocks_26/Add", "op": "Add", "input": ["StatefulPartitionedCall/sequential/hub_keras_layer_v1v2/StatefulPartitionedCall/efficientnet-lite4/model/blocks_26/tpu_batch_normalization_2/FusedBatchNormV3", "StatefulPartitionedCall/sequential/hub_keras_layer_v1v2/StatefulPartitionedCall/efficientnet-lite4/model/blocks_25/Add"], "attr": {"T": {"type": "DT_FLOAT"}}}, {"name": "StatefulPartitionedCall/sequential/hub_keras_layer_v1v2/StatefulPartitionedCall/efficientnet-lite4/model/blocks_27/Relu6", "op": "_FusedConv2D", "input": ["StatefulPartitionedCall/sequential/hub_keras_layer_v1v2/StatefulPartitionedCall/efficientnet-lite4/model/blocks_26/Add", "StatefulPartitionedCall/sequential/hub_keras_layer_v1v2/StatefulPartitionedCall/efficientnet-lite4/model/blocks_27/conv2d/Conv2D_weights", "StatefulPartitionedCall/sequential/hub_keras_layer_v1v2/StatefulPartitionedCall/efficientnet-lite4/model/blocks_27/conv2d/Conv2D_bn_offset"], "device": "/device:CPU:0", "attr": {"epsilon": {"f": 0.0}, "dilations": {"list": {"i": ["1", "1", "1", "1"]}}, "use_cudnn_on_gpu": {"b": true}, "padding": {"s": "U0FNRQ=="}, "data_format": {"s": "TkhXQw=="}, "num_args": {"i": "1"}, "fused_ops": {"list": {"s": ["Qmlhc0FkZA==", "UmVsdTY="]}}, "strides": {"list": {"i": ["1", "1", "1", "1"]}}, "explicit_paddings": {"list": {}}, "T": {"type": "DT_FLOAT"}}}, {"name": "StatefulPartitionedCall/sequential/hub_keras_layer_v1v2/StatefulPartitionedCall/efficientnet-lite4/model/blocks_27/depthwise_conv2d/depthwise", "op": "FusedDepthwiseConv2dNative", "input": ["StatefulPartitionedCall/sequential/hub_keras_layer_v1v2/StatefulPartitionedCall/efficientnet-lite4/model/blocks_27/Relu6", "StatefulPartitionedCall/sequential/hub_keras_layer_v1v2/StatefulPartitionedCall/efficientnet-lite4/model/blocks_27/depthwise_conv2d/depthwise_weights", "StatefulPartitionedCall/sequential/hub_keras_layer_v1v2/StatefulPartitionedCall/efficientnet-lite4/model/blocks_27/depthwise_conv2d/depthwise_bn_offset"], "attr": {"dilations": {"list": {"i": ["1", "1", "1", "1"]}}, "fused_ops": {"list": {"s": ["Qmlhc0FkZA==", "UmVsdTY="]}}, "data_format": {"s": "TkhXQw=="}, "explicit_paddings": {"list": {}}, "strides": {"list": {"i": ["1", "1", "1", "1"]}}, "T": {"type": "DT_FLOAT"}, "num_args": {"i": "1"}, "padding": {"s": "U0FNRQ=="}}}, {"name": "StatefulPartitionedCall/sequential/hub_keras_layer_v1v2/StatefulPartitionedCall/efficientnet-lite4/model/blocks_27/tpu_batch_normalization_2/FusedBatchNormV3", "op": "_FusedConv2D", "input": ["StatefulPartitionedCall/sequential/hub_keras_layer_v1v2/StatefulPartitionedCall/efficientnet-lite4/model/blocks_27/depthwise_conv2d/depthwise", "StatefulPartitionedCall/sequential/hub_keras_layer_v1v2/StatefulPartitionedCall/efficientnet-lite4/model/blocks_27/conv2d_1/Conv2D_weights", "StatefulPartitionedCall/sequential/hub_keras_layer_v1v2/StatefulPartitionedCall/efficientnet-lite4/model/blocks_27/conv2d_1/Conv2D_bn_offset"], "device": "/device:CPU:0", "attr": {"data_format": {"s": "TkhXQw=="}, "padding": {"s": "U0FNRQ=="}, "num_args": {"i": "1"}, "explicit_paddings": {"list": {}}, "strides": {"list": {"i": ["1", "1", "1", "1"]}}, "fused_ops": {"list": {"s": ["Qmlhc0FkZA=="]}}, "T": {"type": "DT_FLOAT"}, "dilations": {"list": {"i": ["1", "1", "1", "1"]}}, "epsilon": {"f": 0.0}, "use_cudnn_on_gpu": {"b": true}}}, {"name": "StatefulPartitionedCall/sequential/hub_keras_layer_v1v2/StatefulPartitionedCall/efficientnet-lite4/model/blocks_27/Add", "op": "Add", "input": ["StatefulPartitionedCall/sequential/hub_keras_layer_v1v2/StatefulPartitionedCall/efficientnet-lite4/model/blocks_27/tpu_batch_normalization_2/FusedBatchNormV3", "StatefulPartitionedCall/sequential/hub_keras_layer_v1v2/StatefulPartitionedCall/efficientnet-lite4/model/blocks_26/Add"], "attr": {"T": {"type": "DT_FLOAT"}}}, {"name": "StatefulPartitionedCall/sequential/hub_keras_layer_v1v2/StatefulPartitionedCall/efficientnet-lite4/model/blocks_28/Relu6", "op": "_FusedConv2D", "input": ["StatefulPartitionedCall/sequential/hub_keras_layer_v1v2/StatefulPartitionedCall/efficientnet-lite4/model/blocks_27/Add", "StatefulPartitionedCall/sequential/hub_keras_layer_v1v2/StatefulPartitionedCall/efficientnet-lite4/model/blocks_28/conv2d/Conv2D_weights", "StatefulPartitionedCall/sequential/hub_keras_layer_v1v2/StatefulPartitionedCall/efficientnet-lite4/model/blocks_28/conv2d/Conv2D_bn_offset"], "device": "/device:CPU:0", "attr": {"num_args": {"i": "1"}, "strides": {"list": {"i": ["1", "1", "1", "1"]}}, "data_format": {"s": "TkhXQw=="}, "fused_ops": {"list": {"s": ["Qmlhc0FkZA==", "UmVsdTY="]}}, "T": {"type": "DT_FLOAT"}, "use_cudnn_on_gpu": {"b": true}, "epsilon": {"f": 0.0}, "explicit_paddings": {"list": {}}, "padding": {"s": "U0FNRQ=="}, "dilations": {"list": {"i": ["1", "1", "1", "1"]}}}}, {"name": "StatefulPartitionedCall/sequential/hub_keras_layer_v1v2/StatefulPartitionedCall/efficientnet-lite4/model/blocks_28/depthwise_conv2d/depthwise", "op": "FusedDepthwiseConv2dNative", "input": ["StatefulPartitionedCall/sequential/hub_keras_layer_v1v2/StatefulPartitionedCall/efficientnet-lite4/model/blocks_28/Relu6", "StatefulPartitionedCall/sequential/hub_keras_layer_v1v2/StatefulPartitionedCall/efficientnet-lite4/model/blocks_28/depthwise_conv2d/depthwise_weights", "StatefulPartitionedCall/sequential/hub_keras_layer_v1v2/StatefulPartitionedCall/efficientnet-lite4/model/blocks_28/depthwise_conv2d/depthwise_bn_offset"], "attr": {"data_format": {"s": "TkhXQw=="}, "explicit_paddings": {"list": {}}, "padding": {"s": "U0FNRQ=="}, "strides": {"list": {"i": ["1", "1", "1", "1"]}}, "T": {"type": "DT_FLOAT"}, "dilations": {"list": {"i": ["1", "1", "1", "1"]}}, "num_args": {"i": "1"}, "fused_ops": {"list": {"s": ["Qmlhc0FkZA==", "UmVsdTY="]}}}}, {"name": "StatefulPartitionedCall/sequential/hub_keras_layer_v1v2/StatefulPartitionedCall/efficientnet-lite4/model/blocks_28/tpu_batch_normalization_2/FusedBatchNormV3", "op": "_FusedConv2D", "input": ["StatefulPartitionedCall/sequential/hub_keras_layer_v1v2/StatefulPartitionedCall/efficientnet-lite4/model/blocks_28/depthwise_conv2d/depthwise", "StatefulPartitionedCall/sequential/hub_keras_layer_v1v2/StatefulPartitionedCall/efficientnet-lite4/model/blocks_28/conv2d_1/Conv2D_weights", "StatefulPartitionedCall/sequential/hub_keras_layer_v1v2/StatefulPartitionedCall/efficientnet-lite4/model/blocks_28/conv2d_1/Conv2D_bn_offset"], "device": "/device:CPU:0", "attr": {"strides": {"list": {"i": ["1", "1", "1", "1"]}}, "data_format": {"s": "TkhXQw=="}, "num_args": {"i": "1"}, "use_cudnn_on_gpu": {"b": true}, "explicit_paddings": {"list": {}}, "dilations": {"list": {"i": ["1", "1", "1", "1"]}}, "fused_ops": {"list": {"s": ["Qmlhc0FkZA=="]}}, "T": {"type": "DT_FLOAT"}, "epsilon": {"f": 0.0}, "padding": {"s": "U0FNRQ=="}}}, {"name": "StatefulPartitionedCall/sequential/hub_keras_layer_v1v2/StatefulPartitionedCall/efficientnet-lite4/model/blocks_28/Add", "op": "Add", "input": ["StatefulPartitionedCall/sequential/hub_keras_layer_v1v2/StatefulPartitionedCall/efficientnet-lite4/model/blocks_28/tpu_batch_normalization_2/FusedBatchNormV3", "StatefulPartitionedCall/sequential/hub_keras_layer_v1v2/StatefulPartitionedCall/efficientnet-lite4/model/blocks_27/Add"], "attr": {"T": {"type": "DT_FLOAT"}}}, {"name": "StatefulPartitionedCall/sequential/hub_keras_layer_v1v2/StatefulPartitionedCall/efficientnet-lite4/model/blocks_29/Relu6", "op": "_FusedConv2D", "input": ["StatefulPartitionedCall/sequential/hub_keras_layer_v1v2/StatefulPartitionedCall/efficientnet-lite4/model/blocks_28/Add", "StatefulPartitionedCall/sequential/hub_keras_layer_v1v2/StatefulPartitionedCall/efficientnet-lite4/model/blocks_29/conv2d/Conv2D_weights", "StatefulPartitionedCall/sequential/hub_keras_layer_v1v2/StatefulPartitionedCall/efficientnet-lite4/model/blocks_29/conv2d/Conv2D_bn_offset"], "device": "/device:CPU:0", "attr": {"epsilon": {"f": 0.0}, "num_args": {"i": "1"}, "T": {"type": "DT_FLOAT"}, "data_format": {"s": "TkhXQw=="}, "use_cudnn_on_gpu": {"b": true}, "dilations": {"list": {"i": ["1", "1", "1", "1"]}}, "padding": {"s": "U0FNRQ=="}, "fused_ops": {"list": {"s": ["Qmlhc0FkZA==", "UmVsdTY="]}}, "strides": {"list": {"i": ["1", "1", "1", "1"]}}, "explicit_paddings": {"list": {}}}}, {"name": "StatefulPartitionedCall/sequential/hub_keras_layer_v1v2/StatefulPartitionedCall/efficientnet-lite4/model/blocks_29/depthwise_conv2d/depthwise", "op": "FusedDepthwiseConv2dNative", "input": ["StatefulPartitionedCall/sequential/hub_keras_layer_v1v2/StatefulPartitionedCall/efficientnet-lite4/model/blocks_29/Relu6", "StatefulPartitionedCall/sequential/hub_keras_layer_v1v2/StatefulPartitionedCall/efficientnet-lite4/model/blocks_29/depthwise_conv2d/depthwise_weights", "StatefulPartitionedCall/sequential/hub_keras_layer_v1v2/StatefulPartitionedCall/efficientnet-lite4/model/blocks_29/depthwise_conv2d/depthwise_bn_offset"], "attr": {"data_format": {"s": "TkhXQw=="}, "fused_ops": {"list": {"s": ["Qmlhc0FkZA==", "UmVsdTY="]}}, "padding": {"s": "U0FNRQ=="}, "T": {"type": "DT_FLOAT"}, "dilations": {"list": {"i": ["1", "1", "1", "1"]}}, "explicit_paddings": {"list": {}}, "num_args": {"i": "1"}, "strides": {"list": {"i": ["1", "1", "1", "1"]}}}}, {"name": "StatefulPartitionedCall/sequential/hub_keras_layer_v1v2/StatefulPartitionedCall/efficientnet-lite4/model/blocks_29/tpu_batch_normalization_2/FusedBatchNormV3", "op": "_FusedConv2D", "input": ["StatefulPartitionedCall/sequential/hub_keras_layer_v1v2/StatefulPartitionedCall/efficientnet-lite4/model/blocks_29/depthwise_conv2d/depthwise", "StatefulPartitionedCall/sequential/hub_keras_layer_v1v2/StatefulPartitionedCall/efficientnet-lite4/model/blocks_29/conv2d_1/Conv2D_weights", "StatefulPartitionedCall/sequential/hub_keras_layer_v1v2/StatefulPartitionedCall/efficientnet-lite4/model/blocks_29/conv2d_1/Conv2D_bn_offset"], "device": "/device:CPU:0", "attr": {"use_cudnn_on_gpu": {"b": true}, "padding": {"s": "U0FNRQ=="}, "fused_ops": {"list": {"s": ["Qmlhc0FkZA=="]}}, "epsilon": {"f": 0.0}, "num_args": {"i": "1"}, "T": {"type": "DT_FLOAT"}, "strides": {"list": {"i": ["1", "1", "1", "1"]}}, "data_format": {"s": "TkhXQw=="}, "dilations": {"list": {"i": ["1", "1", "1", "1"]}}, "explicit_paddings": {"list": {}}}}, {"name": "StatefulPartitionedCall/sequential/hub_keras_layer_v1v2/StatefulPartitionedCall/efficientnet-lite4/model/head/Relu6", "op": "_FusedConv2D", "input": ["StatefulPartitionedCall/sequential/hub_keras_layer_v1v2/StatefulPartitionedCall/efficientnet-lite4/model/blocks_29/tpu_batch_normalization_2/FusedBatchNormV3", "StatefulPartitionedCall/sequential/hub_keras_layer_v1v2/StatefulPartitionedCall/efficientnet-lite4/model/head/conv2d/Conv2D_weights", "StatefulPartitionedCall/sequential/hub_keras_layer_v1v2/StatefulPartitionedCall/efficientnet-lite4/model/head/conv2d/Conv2D_bn_offset"], "device": "/device:CPU:0", "attr": {"dilations": {"list": {"i": ["1", "1", "1", "1"]}}, "explicit_paddings": {"list": {}}, "num_args": {"i": "1"}, "use_cudnn_on_gpu": {"b": true}, "T": {"type": "DT_FLOAT"}, "fused_ops": {"list": {"s": ["Qmlhc0FkZA==", "UmVsdTY="]}}, "strides": {"list": {"i": ["1", "1", "1", "1"]}}, "data_format": {"s": "TkhXQw=="}, "padding": {"s": "U0FNRQ=="}, "epsilon": {"f": 0.0}}}, {"name": "StatefulPartitionedCall/sequential/hub_keras_layer_v1v2/StatefulPartitionedCall/efficientnet-lite4/model/head/global_average_pooling2d/Mean", "op": "Mean", "input": ["StatefulPartitionedCall/sequential/hub_keras_layer_v1v2/StatefulPartitionedCall/efficientnet-lite4/model/head/Relu6", "StatefulPartitionedCall/sequential/hub_keras_layer_v1v2/StatefulPartitionedCall/efficientnet-lite4/model/head/global_average_pooling2d/Mean/reduction_indices"], "attr": {"T": {"type": "DT_FLOAT"}, "keep_dims": {"b": false}, "Tidx": {"type": "DT_INT32"}}}, {"name": "StatefulPartitionedCall/sequential/dense/BiasAdd", "op": "_FusedMatMul", "input": ["StatefulPartitionedCall/sequential/hub_keras_layer_v1v2/StatefulPartitionedCall/efficientnet-lite4/model/head/global_average_pooling2d/Mean", "StatefulPartitionedCall/sequential/dense/MatMul/ReadVariableOp", "StatefulPartitionedCall/sequential/dense/BiasAdd/ReadVariableOp"], "device": "/device:CPU:0", "attr": {"T": {"type": "DT_FLOAT"}, "num_args": {"i": "1"}, "fused_ops": {"list": {"s": ["Qmlhc0FkZA=="]}}, "epsilon": {"f": 0.0}, "transpose_a": {"b": false}, "transpose_b": {"b": false}}}, {"name": "StatefulPartitionedCall/sequential/dense/Softmax", "op": "Softmax", "input": ["StatefulPartitionedCall/sequential/dense/BiasAdd"], "attr": {"T": {"type": "DT_FLOAT"}}}, {"name": "Identity", "op": "Identity", "input": ["StatefulPartitionedCall/sequential/dense/Softmax"], "attr": {"T": {"type": "DT_FLOAT"}}}], "library": {}, "versions": {"producer": 987}}, "weightsManifest": [{"paths": ["group1-shard1of12.bin", "group1-shard2of12.bin", "group1-shard3of12.bin", "group1-shard4of12.bin", "group1-shard5of12.bin", "group1-shard6of12.bin", "group1-shard7of12.bin", "group1-shard8of12.bin", "group1-shard9of12.bin", "group1-shard10of12.bin", "group1-shard11of12.bin", "group1-shard12of12.bin"], "weights": [{"name": "StatefulPartitionedCall/sequential/dense/MatMul/ReadVariableOp", "shape": [1280, 112], "dtype": "float32"}, {"name": "StatefulPartitionedCall/sequential/dense/BiasAdd/ReadVariableOp", "shape": [112], "dtype": "float32"}, {"name": "StatefulPartitionedCall/sequential/hub_keras_layer_v1v2/StatefulPartitionedCall/efficientnet-lite4/model/stem/conv2d/Conv2D_weights", "shape": [3, 3, 3, 32], "dtype": "float32"}, {"name": "StatefulPartitionedCall/sequential/hub_keras_layer_v1v2/StatefulPartitionedCall/efficientnet-lite4/model/stem/conv2d/Conv2D_bn_offset", "shape": [32], "dtype": "float32"}, {"name": "StatefulPartitionedCall/sequential/hub_keras_layer_v1v2/StatefulPartitionedCall/efficientnet-lite4/model/blocks_24/depthwise_conv2d/depthwise_bn_offset", "shape": [1632], "dtype": "float32"}, {"name": "StatefulPartitionedCall/sequential/hub_keras_layer_v1v2/StatefulPartitionedCall/efficientnet-lite4/model/blocks_0/depthwise_conv2d/depthwise_weights", "shape": [3, 3, 32, 1], "dtype": "float32"}, {"name": "StatefulPartitionedCall/sequential/hub_keras_layer_v1v2/StatefulPartitionedCall/efficientnet-lite4/model/blocks_0/depthwise_conv2d/depthwise_bn_offset", "shape": [32], "dtype": "float32"}, {"name": "StatefulPartitionedCall/sequential/hub_keras_layer_v1v2/StatefulPartitionedCall/efficientnet-lite4/model/blocks_0/conv2d/Conv2D_weights", "shape": [1, 1, 32, 24], "dtype": "float32"}, {"name": "StatefulPartitionedCall/sequential/hub_keras_layer_v1v2/StatefulPartitionedCall/efficientnet-lite4/model/blocks_0/conv2d/Conv2D_bn_offset", "shape": [24], "dtype": "float32"}, {"name": "StatefulPartitionedCall/sequential/hub_keras_layer_v1v2/StatefulPartitionedCall/efficientnet-lite4/model/blocks_1/conv2d/Conv2D_weights", "shape": [1, 1, 24, 144], "dtype": "float32"}, {"name": "StatefulPartitionedCall/sequential/hub_keras_layer_v1v2/StatefulPartitionedCall/efficientnet-lite4/model/blocks_1/conv2d/Conv2D_bn_offset", "shape": [144], "dtype": "float32"}, {"name": "StatefulPartitionedCall/sequential/hub_keras_layer_v1v2/StatefulPartitionedCall/efficientnet-lite4/model/blocks_24/conv2d_1/Conv2D_weights", "shape": [1, 1, 1632, 272], "dtype": "float32"}, {"name": "StatefulPartitionedCall/sequential/hub_keras_layer_v1v2/StatefulPartitionedCall/efficientnet-lite4/model/blocks_1/depthwise_conv2d/depthwise_weights", "shape": [3, 3, 144, 1], "dtype": "float32"}, {"name": "StatefulPartitionedCall/sequential/hub_keras_layer_v1v2/StatefulPartitionedCall/efficientnet-lite4/model/blocks_1/depthwise_conv2d/depthwise_bn_offset", "shape": [144], "dtype": "float32"}, {"name": "StatefulPartitionedCall/sequential/hub_keras_layer_v1v2/StatefulPartitionedCall/efficientnet-lite4/model/blocks_1/conv2d_1/Conv2D_weights", "shape": [1, 1, 144, 32], "dtype": "float32"}, {"name": "StatefulPartitionedCall/sequential/hub_keras_layer_v1v2/StatefulPartitionedCall/efficientnet-lite4/model/blocks_29/depthwise_conv2d/depthwise_weights", "shape": [3, 3, 1632, 1], "dtype": "float32"}, {"name": "StatefulPartitionedCall/sequential/hub_keras_layer_v1v2/StatefulPartitionedCall/efficientnet-lite4/model/blocks_1/conv2d_1/Conv2D_bn_offset", "shape": [32], "dtype": "float32"}, {"name": "StatefulPartitionedCall/sequential/hub_keras_layer_v1v2/StatefulPartitionedCall/efficientnet-lite4/model/blocks_2/conv2d/Conv2D_weights", "shape": [1, 1, 32, 192], "dtype": "float32"}, {"name": "StatefulPartitionedCall/sequential/hub_keras_layer_v1v2/StatefulPartitionedCall/efficientnet-lite4/model/blocks_24/conv2d_1/Conv2D_bn_offset", "shape": [272], "dtype": "float32"}, {"name": "StatefulPartitionedCall/sequential/hub_keras_layer_v1v2/StatefulPartitionedCall/efficientnet-lite4/model/blocks_2/conv2d/Conv2D_bn_offset", "shape": [192], "dtype": "float32"}, {"name": "StatefulPartitionedCall/sequential/hub_keras_layer_v1v2/StatefulPartitionedCall/efficientnet-lite4/model/blocks_2/depthwise_conv2d/depthwise_weights", "shape": [3, 3, 192, 1], "dtype": "float32"}, {"name": "StatefulPartitionedCall/sequential/hub_keras_layer_v1v2/StatefulPartitionedCall/efficientnet-lite4/model/blocks_2/depthwise_conv2d/depthwise_bn_offset", "shape": [192], "dtype": "float32"}, {"name": "StatefulPartitionedCall/sequential/hub_keras_layer_v1v2/StatefulPartitionedCall/efficientnet-lite4/model/blocks_2/conv2d_1/Conv2D_weights", "shape": [1, 1, 192, 32], "dtype": "float32"}, {"name": "StatefulPartitionedCall/sequential/hub_keras_layer_v1v2/StatefulPartitionedCall/efficientnet-lite4/model/blocks_2/conv2d_1/Conv2D_bn_offset", "shape": [32], "dtype": "float32"}, {"name": "StatefulPartitionedCall/sequential/hub_keras_layer_v1v2/StatefulPartitionedCall/efficientnet-lite4/model/blocks_3/conv2d/Conv2D_weights", "shape": [1, 1, 32, 192], "dtype": "float32"}, {"name": "StatefulPartitionedCall/sequential/hub_keras_layer_v1v2/StatefulPartitionedCall/efficientnet-lite4/model/blocks_25/conv2d/Conv2D_weights", "shape": [1, 1, 272, 1632], "dtype": "float32"}, {"name": "StatefulPartitionedCall/sequential/hub_keras_layer_v1v2/StatefulPartitionedCall/efficientnet-lite4/model/blocks_3/conv2d/Conv2D_bn_offset", "shape": [192], "dtype": "float32"}, {"name": "StatefulPartitionedCall/sequential/hub_keras_layer_v1v2/StatefulPartitionedCall/efficientnet-lite4/model/blocks_3/depthwise_conv2d/depthwise_weights", "shape": [3, 3, 192, 1], "dtype": "float32"}, {"name": "StatefulPartitionedCall/sequential/hub_keras_layer_v1v2/StatefulPartitionedCall/efficientnet-lite4/model/blocks_3/depthwise_conv2d/depthwise_bn_offset", "shape": [192], "dtype": "float32"}, {"name": "StatefulPartitionedCall/sequential/hub_keras_layer_v1v2/StatefulPartitionedCall/efficientnet-lite4/model/blocks_3/conv2d_1/Conv2D_weights", "shape": [1, 1, 192, 32], "dtype": "float32"}, {"name": "StatefulPartitionedCall/sequential/hub_keras_layer_v1v2/StatefulPartitionedCall/efficientnet-lite4/model/blocks_25/conv2d/Conv2D_bn_offset", "shape": [1632], "dtype": "float32"}, {"name": "StatefulPartitionedCall/sequential/hub_keras_layer_v1v2/StatefulPartitionedCall/efficientnet-lite4/model/blocks_3/conv2d_1/Conv2D_bn_offset", "shape": [32], "dtype": "float32"}, {"name": "StatefulPartitionedCall/sequential/hub_keras_layer_v1v2/StatefulPartitionedCall/efficientnet-lite4/model/blocks_4/conv2d/Conv2D_weights", "shape": [1, 1, 32, 192], "dtype": "float32"}, {"name": "StatefulPartitionedCall/sequential/hub_keras_layer_v1v2/StatefulPartitionedCall/efficientnet-lite4/model/blocks_29/depthwise_conv2d/depthwise_bn_offset", "shape": [1632], "dtype": "float32"}, {"name": "StatefulPartitionedCall/sequential/hub_keras_layer_v1v2/StatefulPartitionedCall/efficientnet-lite4/model/blocks_4/conv2d/Conv2D_bn_offset", "shape": [192], "dtype": "float32"}, {"name": "StatefulPartitionedCall/sequential/hub_keras_layer_v1v2/StatefulPartitionedCall/efficientnet-lite4/model/blocks_4/depthwise_conv2d/depthwise_weights", "shape": [3, 3, 192, 1], "dtype": "float32"}, {"name": "StatefulPartitionedCall/sequential/hub_keras_layer_v1v2/StatefulPartitionedCall/efficientnet-lite4/model/blocks_4/depthwise_conv2d/depthwise_bn_offset", "shape": [192], "dtype": "float32"}, {"name": "StatefulPartitionedCall/sequential/hub_keras_layer_v1v2/StatefulPartitionedCall/efficientnet-lite4/model/blocks_4/conv2d_1/Conv2D_weights", "shape": [1, 1, 192, 32], "dtype": "float32"}, {"name": "StatefulPartitionedCall/sequential/hub_keras_layer_v1v2/StatefulPartitionedCall/efficientnet-lite4/model/blocks_25/depthwise_conv2d/depthwise_weights", "shape": [5, 5, 1632, 1], "dtype": "float32"}, {"name": "StatefulPartitionedCall/sequential/hub_keras_layer_v1v2/StatefulPartitionedCall/efficientnet-lite4/model/blocks_4/conv2d_1/Conv2D_bn_offset", "shape": [32], "dtype": "float32"}, {"name": "StatefulPartitionedCall/sequential/hub_keras_layer_v1v2/StatefulPartitionedCall/efficientnet-lite4/model/blocks_5/conv2d/Conv2D_weights", "shape": [1, 1, 32, 192], "dtype": "float32"}, {"name": "StatefulPartitionedCall/sequential/hub_keras_layer_v1v2/StatefulPartitionedCall/efficientnet-lite4/model/blocks_5/conv2d/Conv2D_bn_offset", "shape": [192], "dtype": "float32"}, {"name": "StatefulPartitionedCall/sequential/hub_keras_layer_v1v2/StatefulPartitionedCall/efficientnet-lite4/model/blocks_25/depthwise_conv2d/depthwise_bn_offset", "shape": [1632], "dtype": "float32"}, {"name": "StatefulPartitionedCall/sequential/hub_keras_layer_v1v2/StatefulPartitionedCall/efficientnet-lite4/model/blocks_5/depthwise_conv2d/depthwise_weights", "shape": [5, 5, 192, 1], "dtype": "float32"}, {"name": "StatefulPartitionedCall/sequential/hub_keras_layer_v1v2/StatefulPartitionedCall/efficientnet-lite4/model/blocks_5/depthwise_conv2d/depthwise_bn_offset", "shape": [192], "dtype": "float32"}, {"name": "StatefulPartitionedCall/sequential/hub_keras_layer_v1v2/StatefulPartitionedCall/efficientnet-lite4/model/blocks_5/conv2d_1/Conv2D_weights", "shape": [1, 1, 192, 56], "dtype": "float32"}, {"name": "StatefulPartitionedCall/sequential/hub_keras_layer_v1v2/StatefulPartitionedCall/efficientnet-lite4/model/blocks_5/conv2d_1/Conv2D_bn_offset", "shape": [56], "dtype": "float32"}, {"name": "StatefulPartitionedCall/sequential/hub_keras_layer_v1v2/StatefulPartitionedCall/efficientnet-lite4/model/blocks_6/conv2d/Conv2D_weights", "shape": [1, 1, 56, 336], "dtype": "float32"}, {"name": "StatefulPartitionedCall/sequential/hub_keras_layer_v1v2/StatefulPartitionedCall/efficientnet-lite4/model/blocks_6/conv2d/Conv2D_bn_offset", "shape": [336], "dtype": "float32"}, {"name": "StatefulPartitionedCall/sequential/hub_keras_layer_v1v2/StatefulPartitionedCall/efficientnet-lite4/model/blocks_25/conv2d_1/Conv2D_weights", "shape": [1, 1, 1632, 272], "dtype": "float32"}, {"name": "StatefulPartitionedCall/sequential/hub_keras_layer_v1v2/StatefulPartitionedCall/efficientnet-lite4/model/blocks_6/depthwise_conv2d/depthwise_weights", "shape": [5, 5, 336, 1], "dtype": "float32"}, {"name": "StatefulPartitionedCall/sequential/hub_keras_layer_v1v2/StatefulPartitionedCall/efficientnet-lite4/model/blocks_6/depthwise_conv2d/depthwise_bn_offset", "shape": [336], "dtype": "float32"}, {"name": "StatefulPartitionedCall/sequential/hub_keras_layer_v1v2/StatefulPartitionedCall/efficientnet-lite4/model/blocks_6/conv2d_1/Conv2D_weights", "shape": [1, 1, 336, 56], "dtype": "float32"}, {"name": "StatefulPartitionedCall/sequential/hub_keras_layer_v1v2/StatefulPartitionedCall/efficientnet-lite4/model/blocks_6/conv2d_1/Conv2D_bn_offset", "shape": [56], "dtype": "float32"}, {"name": "StatefulPartitionedCall/sequential/hub_keras_layer_v1v2/StatefulPartitionedCall/efficientnet-lite4/model/blocks_7/conv2d/Conv2D_weights", "shape": [1, 1, 56, 336], "dtype": "float32"}, {"name": "StatefulPartitionedCall/sequential/hub_keras_layer_v1v2/StatefulPartitionedCall/efficientnet-lite4/model/blocks_25/conv2d_1/Conv2D_bn_offset", "shape": [272], "dtype": "float32"}, {"name": "StatefulPartitionedCall/sequential/hub_keras_layer_v1v2/StatefulPartitionedCall/efficientnet-lite4/model/blocks_7/conv2d/Conv2D_bn_offset", "shape": [336], "dtype": "float32"}, {"name": "StatefulPartitionedCall/sequential/hub_keras_layer_v1v2/StatefulPartitionedCall/efficientnet-lite4/model/blocks_7/depthwise_conv2d/depthwise_weights", "shape": [5, 5, 336, 1], "dtype": "float32"}, {"name": "StatefulPartitionedCall/sequential/hub_keras_layer_v1v2/StatefulPartitionedCall/efficientnet-lite4/model/blocks_7/depthwise_conv2d/depthwise_bn_offset", "shape": [336], "dtype": "float32"}, {"name": "StatefulPartitionedCall/sequential/hub_keras_layer_v1v2/StatefulPartitionedCall/efficientnet-lite4/model/blocks_7/conv2d_1/Conv2D_weights", "shape": [1, 1, 336, 56], "dtype": "float32"}, {"name": "StatefulPartitionedCall/sequential/hub_keras_layer_v1v2/StatefulPartitionedCall/efficientnet-lite4/model/blocks_7/conv2d_1/Conv2D_bn_offset", "shape": [56], "dtype": "float32"}, {"name": "StatefulPartitionedCall/sequential/hub_keras_layer_v1v2/StatefulPartitionedCall/efficientnet-lite4/model/blocks_8/conv2d/Conv2D_weights", "shape": [1, 1, 56, 336], "dtype": "float32"}, {"name": "StatefulPartitionedCall/sequential/hub_keras_layer_v1v2/StatefulPartitionedCall/efficientnet-lite4/model/blocks_26/conv2d/Conv2D_weights", "shape": [1, 1, 272, 1632], "dtype": "float32"}, {"name": "StatefulPartitionedCall/sequential/hub_keras_layer_v1v2/StatefulPartitionedCall/efficientnet-lite4/model/blocks_8/conv2d/Conv2D_bn_offset", "shape": [336], "dtype": "float32"}, {"name": "StatefulPartitionedCall/sequential/hub_keras_layer_v1v2/StatefulPartitionedCall/efficientnet-lite4/model/blocks_8/depthwise_conv2d/depthwise_weights", "shape": [5, 5, 336, 1], "dtype": "float32"}, {"name": "StatefulPartitionedCall/sequential/hub_keras_layer_v1v2/StatefulPartitionedCall/efficientnet-lite4/model/blocks_8/depthwise_conv2d/depthwise_bn_offset", "shape": [336], "dtype": "float32"}, {"name": "StatefulPartitionedCall/sequential/hub_keras_layer_v1v2/StatefulPartitionedCall/efficientnet-lite4/model/blocks_8/conv2d_1/Conv2D_weights", "shape": [1, 1, 336, 56], "dtype": "float32"}, {"name": "StatefulPartitionedCall/sequential/hub_keras_layer_v1v2/StatefulPartitionedCall/efficientnet-lite4/model/blocks_26/conv2d/Conv2D_bn_offset", "shape": [1632], "dtype": "float32"}, {"name": "StatefulPartitionedCall/sequential/hub_keras_layer_v1v2/StatefulPartitionedCall/efficientnet-lite4/model/blocks_8/conv2d_1/Conv2D_bn_offset", "shape": [56], "dtype": "float32"}, {"name": "StatefulPartitionedCall/sequential/hub_keras_layer_v1v2/StatefulPartitionedCall/efficientnet-lite4/model/blocks_9/conv2d/Conv2D_weights", "shape": [1, 1, 56, 336], "dtype": "float32"}, {"name": "StatefulPartitionedCall/sequential/hub_keras_layer_v1v2/StatefulPartitionedCall/efficientnet-lite4/model/blocks_29/conv2d_1/Conv2D_weights", "shape": [1, 1, 1632, 448], "dtype": "float32"}, {"name": "StatefulPartitionedCall/sequential/hub_keras_layer_v1v2/StatefulPartitionedCall/efficientnet-lite4/model/blocks_9/conv2d/Conv2D_bn_offset", "shape": [336], "dtype": "float32"}, {"name": "StatefulPartitionedCall/sequential/hub_keras_layer_v1v2/StatefulPartitionedCall/efficientnet-lite4/model/blocks_9/depthwise_conv2d/depthwise_weights", "shape": [3, 3, 336, 1], "dtype": "float32"}, {"name": "StatefulPartitionedCall/sequential/hub_keras_layer_v1v2/StatefulPartitionedCall/efficientnet-lite4/model/blocks_9/depthwise_conv2d/depthwise_bn_offset", "shape": [336], "dtype": "float32"}, {"name": "StatefulPartitionedCall/sequential/hub_keras_layer_v1v2/StatefulPartitionedCall/efficientnet-lite4/model/blocks_9/conv2d_1/Conv2D_weights", "shape": [1, 1, 336, 112], "dtype": "float32"}, {"name": "StatefulPartitionedCall/sequential/hub_keras_layer_v1v2/StatefulPartitionedCall/efficientnet-lite4/model/blocks_26/depthwise_conv2d/depthwise_weights", "shape": [5, 5, 1632, 1], "dtype": "float32"}, {"name": "StatefulPartitionedCall/sequential/hub_keras_layer_v1v2/StatefulPartitionedCall/efficientnet-lite4/model/blocks_9/conv2d_1/Conv2D_bn_offset", "shape": [112], "dtype": "float32"}, {"name": "StatefulPartitionedCall/sequential/hub_keras_layer_v1v2/StatefulPartitionedCall/efficientnet-lite4/model/blocks_10/conv2d/Conv2D_weights", "shape": [1, 1, 112, 672], "dtype": "float32"}, {"name": "StatefulPartitionedCall/sequential/hub_keras_layer_v1v2/StatefulPartitionedCall/efficientnet-lite4/model/blocks_10/conv2d/Conv2D_bn_offset", "shape": [672], "dtype": "float32"}, {"name": "StatefulPartitionedCall/sequential/hub_keras_layer_v1v2/StatefulPartitionedCall/efficientnet-lite4/model/blocks_26/depthwise_conv2d/depthwise_bn_offset", "shape": [1632], "dtype": "float32"}, {"name": "StatefulPartitionedCall/sequential/hub_keras_layer_v1v2/StatefulPartitionedCall/efficientnet-lite4/model/blocks_10/depthwise_conv2d/depthwise_weights", "shape": [3, 3, 672, 1], "dtype": "float32"}, {"name": "StatefulPartitionedCall/sequential/hub_keras_layer_v1v2/StatefulPartitionedCall/efficientnet-lite4/model/blocks_10/depthwise_conv2d/depthwise_bn_offset", "shape": [672], "dtype": "float32"}, {"name": "StatefulPartitionedCall/sequential/hub_keras_layer_v1v2/StatefulPartitionedCall/efficientnet-lite4/model/blocks_10/conv2d_1/Conv2D_weights", "shape": [1, 1, 672, 112], "dtype": "float32"}, {"name": "StatefulPartitionedCall/sequential/hub_keras_layer_v1v2/StatefulPartitionedCall/efficientnet-lite4/model/blocks_10/conv2d_1/Conv2D_bn_offset", "shape": [112], "dtype": "float32"}, {"name": "StatefulPartitionedCall/sequential/hub_keras_layer_v1v2/StatefulPartitionedCall/efficientnet-lite4/model/blocks_11/conv2d/Conv2D_weights", "shape": [1, 1, 112, 672], "dtype": "float32"}, {"name": "StatefulPartitionedCall/sequential/hub_keras_layer_v1v2/StatefulPartitionedCall/efficientnet-lite4/model/blocks_11/conv2d/Conv2D_bn_offset", "shape": [672], "dtype": "float32"}, {"name": "StatefulPartitionedCall/sequential/hub_keras_layer_v1v2/StatefulPartitionedCall/efficientnet-lite4/model/blocks_26/conv2d_1/Conv2D_weights", "shape": [1, 1, 1632, 272], "dtype": "float32"}, {"name": "StatefulPartitionedCall/sequential/hub_keras_layer_v1v2/StatefulPartitionedCall/efficientnet-lite4/model/blocks_11/depthwise_conv2d/depthwise_weights", "shape": [3, 3, 672, 1], "dtype": "float32"}, {"name": "StatefulPartitionedCall/sequential/hub_keras_layer_v1v2/StatefulPartitionedCall/efficientnet-lite4/model/blocks_11/depthwise_conv2d/depthwise_bn_offset", "shape": [672], "dtype": "float32"}, {"name": "StatefulPartitionedCall/sequential/hub_keras_layer_v1v2/StatefulPartitionedCall/efficientnet-lite4/model/blocks_11/conv2d_1/Conv2D_weights", "shape": [1, 1, 672, 112], "dtype": "float32"}, {"name": "StatefulPartitionedCall/sequential/hub_keras_layer_v1v2/StatefulPartitionedCall/efficientnet-lite4/model/blocks_11/conv2d_1/Conv2D_bn_offset", "shape": [112], "dtype": "float32"}, {"name": "StatefulPartitionedCall/sequential/hub_keras_layer_v1v2/StatefulPartitionedCall/efficientnet-lite4/model/blocks_12/conv2d/Conv2D_weights", "shape": [1, 1, 112, 672], "dtype": "float32"}, {"name": "StatefulPartitionedCall/sequential/hub_keras_layer_v1v2/StatefulPartitionedCall/efficientnet-lite4/model/blocks_26/conv2d_1/Conv2D_bn_offset", "shape": [272], "dtype": "float32"}, {"name": "StatefulPartitionedCall/sequential/hub_keras_layer_v1v2/StatefulPartitionedCall/efficientnet-lite4/model/blocks_12/conv2d/Conv2D_bn_offset", "shape": [672], "dtype": "float32"}, {"name": "StatefulPartitionedCall/sequential/hub_keras_layer_v1v2/StatefulPartitionedCall/efficientnet-lite4/model/blocks_12/depthwise_conv2d/depthwise_weights", "shape": [3, 3, 672, 1], "dtype": "float32"}, {"name": "StatefulPartitionedCall/sequential/hub_keras_layer_v1v2/StatefulPartitionedCall/efficientnet-lite4/model/blocks_12/depthwise_conv2d/depthwise_bn_offset", "shape": [672], "dtype": "float32"}, {"name": "StatefulPartitionedCall/sequential/hub_keras_layer_v1v2/StatefulPartitionedCall/efficientnet-lite4/model/blocks_12/conv2d_1/Conv2D_weights", "shape": [1, 1, 672, 112], "dtype": "float32"}, {"name": "StatefulPartitionedCall/sequential/hub_keras_layer_v1v2/StatefulPartitionedCall/efficientnet-lite4/model/blocks_12/conv2d_1/Conv2D_bn_offset", "shape": [112], "dtype": "float32"}, {"name": "StatefulPartitionedCall/sequential/hub_keras_layer_v1v2/StatefulPartitionedCall/efficientnet-lite4/model/blocks_13/conv2d/Conv2D_weights", "shape": [1, 1, 112, 672], "dtype": "float32"}, {"name": "StatefulPartitionedCall/sequential/hub_keras_layer_v1v2/StatefulPartitionedCall/efficientnet-lite4/model/blocks_27/conv2d/Conv2D_weights", "shape": [1, 1, 272, 1632], "dtype": "float32"}, {"name": "StatefulPartitionedCall/sequential/hub_keras_layer_v1v2/StatefulPartitionedCall/efficientnet-lite4/model/blocks_13/conv2d/Conv2D_bn_offset", "shape": [672], "dtype": "float32"}, {"name": "StatefulPartitionedCall/sequential/hub_keras_layer_v1v2/StatefulPartitionedCall/efficientnet-lite4/model/blocks_29/conv2d_1/Conv2D_bn_offset", "shape": [448], "dtype": "float32"}, {"name": "StatefulPartitionedCall/sequential/hub_keras_layer_v1v2/StatefulPartitionedCall/efficientnet-lite4/model/blocks_13/depthwise_conv2d/depthwise_weights", "shape": [3, 3, 672, 1], "dtype": "float32"}, {"name": "StatefulPartitionedCall/sequential/hub_keras_layer_v1v2/StatefulPartitionedCall/efficientnet-lite4/model/blocks_13/depthwise_conv2d/depthwise_bn_offset", "shape": [672], "dtype": "float32"}, {"name": "StatefulPartitionedCall/sequential/hub_keras_layer_v1v2/StatefulPartitionedCall/efficientnet-lite4/model/blocks_13/conv2d_1/Conv2D_weights", "shape": [1, 1, 672, 112], "dtype": "float32"}, {"name": "StatefulPartitionedCall/sequential/hub_keras_layer_v1v2/StatefulPartitionedCall/efficientnet-lite4/model/blocks_27/conv2d/Conv2D_bn_offset", "shape": [1632], "dtype": "float32"}, {"name": "StatefulPartitionedCall/sequential/hub_keras_layer_v1v2/StatefulPartitionedCall/efficientnet-lite4/model/blocks_13/conv2d_1/Conv2D_bn_offset", "shape": [112], "dtype": "float32"}, {"name": "StatefulPartitionedCall/sequential/hub_keras_layer_v1v2/StatefulPartitionedCall/efficientnet-lite4/model/blocks_14/conv2d/Conv2D_weights", "shape": [1, 1, 112, 672], "dtype": "float32"}, {"name": "StatefulPartitionedCall/sequential/hub_keras_layer_v1v2/StatefulPartitionedCall/efficientnet-lite4/model/blocks_14/conv2d/Conv2D_bn_offset", "shape": [672], "dtype": "float32"}, {"name": "StatefulPartitionedCall/sequential/hub_keras_layer_v1v2/StatefulPartitionedCall/efficientnet-lite4/model/blocks_14/depthwise_conv2d/depthwise_weights", "shape": [3, 3, 672, 1], "dtype": "float32"}, {"name": "StatefulPartitionedCall/sequential/hub_keras_layer_v1v2/StatefulPartitionedCall/efficientnet-lite4/model/blocks_14/depthwise_conv2d/depthwise_bn_offset", "shape": [672], "dtype": "float32"}, {"name": "StatefulPartitionedCall/sequential/hub_keras_layer_v1v2/StatefulPartitionedCall/efficientnet-lite4/model/blocks_14/conv2d_1/Conv2D_weights", "shape": [1, 1, 672, 112], "dtype": "float32"}, {"name": "StatefulPartitionedCall/sequential/hub_keras_layer_v1v2/StatefulPartitionedCall/efficientnet-lite4/model/blocks_27/depthwise_conv2d/depthwise_weights", "shape": [5, 5, 1632, 1], "dtype": "float32"}, {"name": "StatefulPartitionedCall/sequential/hub_keras_layer_v1v2/StatefulPartitionedCall/efficientnet-lite4/model/blocks_14/conv2d_1/Conv2D_bn_offset", "shape": [112], "dtype": "float32"}, {"name": "StatefulPartitionedCall/sequential/hub_keras_layer_v1v2/StatefulPartitionedCall/efficientnet-lite4/model/blocks_15/conv2d/Conv2D_weights", "shape": [1, 1, 112, 672], "dtype": "float32"}, {"name": "StatefulPartitionedCall/sequential/hub_keras_layer_v1v2/StatefulPartitionedCall/efficientnet-lite4/model/blocks_15/conv2d/Conv2D_bn_offset", "shape": [672], "dtype": "float32"}, {"name": "StatefulPartitionedCall/sequential/hub_keras_layer_v1v2/StatefulPartitionedCall/efficientnet-lite4/model/blocks_27/depthwise_conv2d/depthwise_bn_offset", "shape": [1632], "dtype": "float32"}, {"name": "StatefulPartitionedCall/sequential/hub_keras_layer_v1v2/StatefulPartitionedCall/efficientnet-lite4/model/blocks_15/depthwise_conv2d/depthwise_weights", "shape": [5, 5, 672, 1], "dtype": "float32"}, {"name": "StatefulPartitionedCall/sequential/hub_keras_layer_v1v2/StatefulPartitionedCall/efficientnet-lite4/model/blocks_15/depthwise_conv2d/depthwise_bn_offset", "shape": [672], "dtype": "float32"}, {"name": "StatefulPartitionedCall/sequential/hub_keras_layer_v1v2/StatefulPartitionedCall/efficientnet-lite4/model/blocks_15/conv2d_1/Conv2D_weights", "shape": [1, 1, 672, 160], "dtype": "float32"}, {"name": "StatefulPartitionedCall/sequential/hub_keras_layer_v1v2/StatefulPartitionedCall/efficientnet-lite4/model/blocks_15/conv2d_1/Conv2D_bn_offset", "shape": [160], "dtype": "float32"}, {"name": "StatefulPartitionedCall/sequential/hub_keras_layer_v1v2/StatefulPartitionedCall/efficientnet-lite4/model/blocks_16/conv2d/Conv2D_weights", "shape": [1, 1, 160, 960], "dtype": "float32"}, {"name": "StatefulPartitionedCall/sequential/hub_keras_layer_v1v2/StatefulPartitionedCall/efficientnet-lite4/model/blocks_16/conv2d/Conv2D_bn_offset", "shape": [960], "dtype": "float32"}, {"name": "StatefulPartitionedCall/sequential/hub_keras_layer_v1v2/StatefulPartitionedCall/efficientnet-lite4/model/blocks_27/conv2d_1/Conv2D_weights", "shape": [1, 1, 1632, 272], "dtype": "float32"}, {"name": "StatefulPartitionedCall/sequential/hub_keras_layer_v1v2/StatefulPartitionedCall/efficientnet-lite4/model/blocks_16/depthwise_conv2d/depthwise_weights", "shape": [5, 5, 960, 1], "dtype": "float32"}, {"name": "StatefulPartitionedCall/sequential/hub_keras_layer_v1v2/StatefulPartitionedCall/efficientnet-lite4/model/blocks_16/depthwise_conv2d/depthwise_bn_offset", "shape": [960], "dtype": "float32"}, {"name": "StatefulPartitionedCall/sequential/hub_keras_layer_v1v2/StatefulPartitionedCall/efficientnet-lite4/model/blocks_16/conv2d_1/Conv2D_weights", "shape": [1, 1, 960, 160], "dtype": "float32"}, {"name": "StatefulPartitionedCall/sequential/hub_keras_layer_v1v2/StatefulPartitionedCall/efficientnet-lite4/model/head/conv2d/Conv2D_weights", "shape": [1, 1, 448, 1280], "dtype": "float32"}, {"name": "StatefulPartitionedCall/sequential/hub_keras_layer_v1v2/StatefulPartitionedCall/efficientnet-lite4/model/blocks_16/conv2d_1/Conv2D_bn_offset", "shape": [160], "dtype": "float32"}, {"name": "StatefulPartitionedCall/sequential/hub_keras_layer_v1v2/StatefulPartitionedCall/efficientnet-lite4/model/blocks_17/conv2d/Conv2D_weights", "shape": [1, 1, 160, 960], "dtype": "float32"}, {"name": "StatefulPartitionedCall/sequential/hub_keras_layer_v1v2/StatefulPartitionedCall/efficientnet-lite4/model/blocks_27/conv2d_1/Conv2D_bn_offset", "shape": [272], "dtype": "float32"}, {"name": "StatefulPartitionedCall/sequential/hub_keras_layer_v1v2/StatefulPartitionedCall/efficientnet-lite4/model/blocks_17/conv2d/Conv2D_bn_offset", "shape": [960], "dtype": "float32"}, {"name": "StatefulPartitionedCall/sequential/hub_keras_layer_v1v2/StatefulPartitionedCall/efficientnet-lite4/model/blocks_17/depthwise_conv2d/depthwise_weights", "shape": [5, 5, 960, 1], "dtype": "float32"}, {"name": "StatefulPartitionedCall/sequential/hub_keras_layer_v1v2/StatefulPartitionedCall/efficientnet-lite4/model/blocks_17/depthwise_conv2d/depthwise_bn_offset", "shape": [960], "dtype": "float32"}, {"name": "StatefulPartitionedCall/sequential/hub_keras_layer_v1v2/StatefulPartitionedCall/efficientnet-lite4/model/blocks_17/conv2d_1/Conv2D_weights", "shape": [1, 1, 960, 160], "dtype": "float32"}, {"name": "StatefulPartitionedCall/sequential/hub_keras_layer_v1v2/StatefulPartitionedCall/efficientnet-lite4/model/blocks_17/conv2d_1/Conv2D_bn_offset", "shape": [160], "dtype": "float32"}, {"name": "StatefulPartitionedCall/sequential/hub_keras_layer_v1v2/StatefulPartitionedCall/efficientnet-lite4/model/blocks_18/conv2d/Conv2D_weights", "shape": [1, 1, 160, 960], "dtype": "float32"}, {"name": "StatefulPartitionedCall/sequential/hub_keras_layer_v1v2/StatefulPartitionedCall/efficientnet-lite4/model/blocks_28/conv2d/Conv2D_weights", "shape": [1, 1, 272, 1632], "dtype": "float32"}, {"name": "StatefulPartitionedCall/sequential/hub_keras_layer_v1v2/StatefulPartitionedCall/efficientnet-lite4/model/blocks_18/conv2d/Conv2D_bn_offset", "shape": [960], "dtype": "float32"}, {"name": "StatefulPartitionedCall/sequential/hub_keras_layer_v1v2/StatefulPartitionedCall/efficientnet-lite4/model/blocks_18/depthwise_conv2d/depthwise_weights", "shape": [5, 5, 960, 1], "dtype": "float32"}, {"name": "StatefulPartitionedCall/sequential/hub_keras_layer_v1v2/StatefulPartitionedCall/efficientnet-lite4/model/blocks_18/depthwise_conv2d/depthwise_bn_offset", "shape": [960], "dtype": "float32"}, {"name": "StatefulPartitionedCall/sequential/hub_keras_layer_v1v2/StatefulPartitionedCall/efficientnet-lite4/model/blocks_18/conv2d_1/Conv2D_weights", "shape": [1, 1, 960, 160], "dtype": "float32"}, {"name": "StatefulPartitionedCall/sequential/hub_keras_layer_v1v2/StatefulPartitionedCall/efficientnet-lite4/model/blocks_28/conv2d/Conv2D_bn_offset", "shape": [1632], "dtype": "float32"}, {"name": "StatefulPartitionedCall/sequential/hub_keras_layer_v1v2/StatefulPartitionedCall/efficientnet-lite4/model/blocks_18/conv2d_1/Conv2D_bn_offset", "shape": [160], "dtype": "float32"}, {"name": "StatefulPartitionedCall/sequential/hub_keras_layer_v1v2/StatefulPartitionedCall/efficientnet-lite4/model/blocks_19/conv2d/Conv2D_weights", "shape": [1, 1, 160, 960], "dtype": "float32"}, {"name": "StatefulPartitionedCall/sequential/hub_keras_layer_v1v2/StatefulPartitionedCall/efficientnet-lite4/model/head/conv2d/Conv2D_bn_offset", "shape": [1280], "dtype": "float32"}, {"name": "StatefulPartitionedCall/sequential/hub_keras_layer_v1v2/StatefulPartitionedCall/efficientnet-lite4/model/blocks_19/conv2d/Conv2D_bn_offset", "shape": [960], "dtype": "float32"}, {"name": "StatefulPartitionedCall/sequential/hub_keras_layer_v1v2/StatefulPartitionedCall/efficientnet-lite4/model/blocks_19/depthwise_conv2d/depthwise_weights", "shape": [5, 5, 960, 1], "dtype": "float32"}, {"name": "StatefulPartitionedCall/sequential/hub_keras_layer_v1v2/StatefulPartitionedCall/efficientnet-lite4/model/blocks_19/depthwise_conv2d/depthwise_bn_offset", "shape": [960], "dtype": "float32"}, {"name": "StatefulPartitionedCall/sequential/hub_keras_layer_v1v2/StatefulPartitionedCall/efficientnet-lite4/model/blocks_19/conv2d_1/Conv2D_weights", "shape": [1, 1, 960, 160], "dtype": "float32"}, {"name": "StatefulPartitionedCall/sequential/hub_keras_layer_v1v2/StatefulPartitionedCall/efficientnet-lite4/model/blocks_28/depthwise_conv2d/depthwise_weights", "shape": [5, 5, 1632, 1], "dtype": "float32"}, {"name": "StatefulPartitionedCall/sequential/hub_keras_layer_v1v2/StatefulPartitionedCall/efficientnet-lite4/model/blocks_19/conv2d_1/Conv2D_bn_offset", "shape": [160], "dtype": "float32"}, {"name": "StatefulPartitionedCall/sequential/hub_keras_layer_v1v2/StatefulPartitionedCall/efficientnet-lite4/model/blocks_20/conv2d/Conv2D_weights", "shape": [1, 1, 160, 960], "dtype": "float32"}, {"name": "StatefulPartitionedCall/sequential/hub_keras_layer_v1v2/StatefulPartitionedCall/efficientnet-lite4/model/blocks_20/conv2d/Conv2D_bn_offset", "shape": [960], "dtype": "float32"}, {"name": "StatefulPartitionedCall/sequential/hub_keras_layer_v1v2/StatefulPartitionedCall/efficientnet-lite4/model/blocks_28/depthwise_conv2d/depthwise_bn_offset", "shape": [1632], "dtype": "float32"}, {"name": "StatefulPartitionedCall/sequential/hub_keras_layer_v1v2/StatefulPartitionedCall/efficientnet-lite4/model/blocks_20/depthwise_conv2d/depthwise_weights", "shape": [5, 5, 960, 1], "dtype": "float32"}, {"name": "StatefulPartitionedCall/sequential/hub_keras_layer_v1v2/StatefulPartitionedCall/efficientnet-lite4/model/blocks_20/depthwise_conv2d/depthwise_bn_offset", "shape": [960], "dtype": "float32"}, {"name": "StatefulPartitionedCall/sequential/hub_keras_layer_v1v2/StatefulPartitionedCall/efficientnet-lite4/model/blocks_20/conv2d_1/Conv2D_weights", "shape": [1, 1, 960, 160], "dtype": "float32"}, {"name": "StatefulPartitionedCall/sequential/hub_keras_layer_v1v2/StatefulPartitionedCall/efficientnet-lite4/model/blocks_20/conv2d_1/Conv2D_bn_offset", "shape": [160], "dtype": "float32"}, {"name": "StatefulPartitionedCall/sequential/hub_keras_layer_v1v2/StatefulPartitionedCall/efficientnet-lite4/model/blocks_21/conv2d/Conv2D_weights", "shape": [1, 1, 160, 960], "dtype": "float32"}, {"name": "StatefulPartitionedCall/sequential/hub_keras_layer_v1v2/StatefulPartitionedCall/efficientnet-lite4/model/blocks_21/conv2d/Conv2D_bn_offset", "shape": [960], "dtype": "float32"}, {"name": "StatefulPartitionedCall/sequential/hub_keras_layer_v1v2/StatefulPartitionedCall/efficientnet-lite4/model/blocks_28/conv2d_1/Conv2D_weights", "shape": [1, 1, 1632, 272], "dtype": "float32"}, {"name": "StatefulPartitionedCall/sequential/hub_keras_layer_v1v2/StatefulPartitionedCall/efficientnet-lite4/model/blocks_21/depthwise_conv2d/depthwise_weights", "shape": [5, 5, 960, 1], "dtype": "float32"}, {"name": "StatefulPartitionedCall/sequential/hub_keras_layer_v1v2/StatefulPartitionedCall/efficientnet-lite4/model/blocks_21/depthwise_conv2d/depthwise_bn_offset", "shape": [960], "dtype": "float32"}, {"name": "StatefulPartitionedCall/sequential/hub_keras_layer_v1v2/StatefulPartitionedCall/efficientnet-lite4/model/blocks_21/conv2d_1/Conv2D_weights", "shape": [1, 1, 960, 272], "dtype": "float32"}, {"name": "StatefulPartitionedCall/sequential/hub_keras_layer_v1v2/StatefulPartitionedCall/efficientnet-lite4/model/blocks_21/conv2d_1/Conv2D_bn_offset", "shape": [272], "dtype": "float32"}, {"name": "StatefulPartitionedCall/sequential/hub_keras_layer_v1v2/StatefulPartitionedCall/efficientnet-lite4/model/blocks_22/conv2d/Conv2D_weights", "shape": [1, 1, 272, 1632], "dtype": "float32"}, {"name": "StatefulPartitionedCall/sequential/hub_keras_layer_v1v2/StatefulPartitionedCall/efficientnet-lite4/model/blocks_28/conv2d_1/Conv2D_bn_offset", "shape": [272], "dtype": "float32"}, {"name": "StatefulPartitionedCall/sequential/hub_keras_layer_v1v2/StatefulPartitionedCall/efficientnet-lite4/model/blocks_22/conv2d/Conv2D_bn_offset", "shape": [1632], "dtype": "float32"}, {"name": "StatefulPartitionedCall/sequential/hub_keras_layer_v1v2/StatefulPartitionedCall/efficientnet-lite4/model/blocks_22/depthwise_conv2d/depthwise_weights", "shape": [5, 5, 1632, 1], "dtype": "float32"}, {"name": "StatefulPartitionedCall/sequential/hub_keras_layer_v1v2/StatefulPartitionedCall/efficientnet-lite4/model/blocks_22/depthwise_conv2d/depthwise_bn_offset", "shape": [1632], "dtype": "float32"}, {"name": "StatefulPartitionedCall/sequential/hub_keras_layer_v1v2/StatefulPartitionedCall/efficientnet-lite4/model/blocks_22/conv2d_1/Conv2D_weights", "shape": [1, 1, 1632, 272], "dtype": "float32"}, {"name": "StatefulPartitionedCall/sequential/hub_keras_layer_v1v2/StatefulPartitionedCall/efficientnet-lite4/model/blocks_22/conv2d_1/Conv2D_bn_offset", "shape": [272], "dtype": "float32"}, {"name": "StatefulPartitionedCall/sequential/hub_keras_layer_v1v2/StatefulPartitionedCall/efficientnet-lite4/model/blocks_23/conv2d/Conv2D_weights", "shape": [1, 1, 272, 1632], "dtype": "float32"}, {"name": "StatefulPartitionedCall/sequential/hub_keras_layer_v1v2/StatefulPartitionedCall/efficientnet-lite4/model/blocks_29/conv2d/Conv2D_weights", "shape": [1, 1, 272, 1632], "dtype": "float32"}, {"name": "StatefulPartitionedCall/sequential/hub_keras_layer_v1v2/StatefulPartitionedCall/efficientnet-lite4/model/blocks_23/conv2d/Conv2D_bn_offset", "shape": [1632], "dtype": "float32"}, {"name": "StatefulPartitionedCall/sequential/hub_keras_layer_v1v2/StatefulPartitionedCall/efficientnet-lite4/model/blocks_23/depthwise_conv2d/depthwise_weights", "shape": [5, 5, 1632, 1], "dtype": "float32"}, {"name": "StatefulPartitionedCall/sequential/hub_keras_layer_v1v2/StatefulPartitionedCall/efficientnet-lite4/model/blocks_23/depthwise_conv2d/depthwise_bn_offset", "shape": [1632], "dtype": "float32"}, {"name": "StatefulPartitionedCall/sequential/hub_keras_layer_v1v2/StatefulPartitionedCall/efficientnet-lite4/model/blocks_23/conv2d_1/Conv2D_weights", "shape": [1, 1, 1632, 272], "dtype": "float32"}, {"name": "StatefulPartitionedCall/sequential/hub_keras_layer_v1v2/StatefulPartitionedCall/efficientnet-lite4/model/blocks_29/conv2d/Conv2D_bn_offset", "shape": [1632], "dtype": "float32"}, {"name": "StatefulPartitionedCall/sequential/hub_keras_layer_v1v2/StatefulPartitionedCall/efficientnet-lite4/model/blocks_23/conv2d_1/Conv2D_bn_offset", "shape": [272], "dtype": "float32"}, {"name": "StatefulPartitionedCall/sequential/hub_keras_layer_v1v2/StatefulPartitionedCall/efficientnet-lite4/model/blocks_24/conv2d/Conv2D_weights", "shape": [1, 1, 272, 1632], "dtype": "float32"}, {"name": "StatefulPartitionedCall/sequential/hub_keras_layer_v1v2/StatefulPartitionedCall/efficientnet-lite4/model/blocks_24/conv2d/Conv2D_bn_offset", "shape": [1632], "dtype": "float32"}, {"name": "StatefulPartitionedCall/sequential/hub_keras_layer_v1v2/StatefulPartitionedCall/efficientnet-lite4/model/blocks_24/depthwise_conv2d/depthwise_weights", "shape": [5, 5, 1632, 1], "dtype": "float32"}, {"name": "StatefulPartitionedCall/sequential/hub_keras_layer_v1v2/StatefulPartitionedCall/Const", "shape": [], "dtype": "float32"}, {"name": "StatefulPartitionedCall/sequential/hub_keras_layer_v1v2/StatefulPartitionedCall/Const_1", "shape": [], "dtype": "float32"}, {"name": "StatefulPartitionedCall/sequential/hub_keras_layer_v1v2/StatefulPartitionedCall/efficientnet-lite4/model/head/global_average_pooling2d/Mean/reduction_indices", "shape": [2], "dtype": "int32"}]}]}